{"model_1": {"user_arch": ["conv_relu", "maxpool", "dropout"], "epochs": {"epoch_1": {"conv_layers": {}, "scores": {"accr": 0.9508, "loss": 0.16503074979186058}}, "epoch_0": {"conv_layers": {}, "scores": {"accr": 0.9294, "loss": 0.24732632617354394}}}, "arch_tf": {"layers": [{"name": "input_2", "inbound_nodes": [], "config": {"batch_input_shape": [null, 28, 28, 1], "sparse": false, "dtype": "float32", "name": "input_2"}, "class_name": "InputLayer"}, {"name": "conv_0", "inbound_nodes": [[["input_2", 0, 0, {}]]], "config": {"kernel_constraint": null, "name": "conv_0", "kernel_initializer": {"class_name": "VarianceScaling", "config": {"seed": null, "mode": "fan_avg", "scale": 1.0, "distribution": "uniform"}}, "trainable": true, "activation": "relu", "use_bias": true, "dilation_rate": [1, 1], "activity_regularizer": null, "kernel_regularizer": null, "filters": 8, "strides": [1, 1], "padding": "same", "bias_regularizer": null, "bias_constraint": null, "bias_initializer": {"class_name": "Zeros", "config": {}}, "kernel_size": [5, 5], "data_format": "channels_last"}, "class_name": "Conv2D"}, {"name": "max_pooling2d_2", "inbound_nodes": [[["conv_0", 0, 0, {}]]], "config": {"name": "max_pooling2d_2", "data_format": "channels_last", "strides": [2, 2], "trainable": true, "pool_size": [2, 2], "padding": "valid"}, "class_name": "MaxPooling2D"}, {"name": "dropout_3", "inbound_nodes": [[["max_pooling2d_2", 0, 0, {}]]], "config": {"trainable": true, "name": "dropout_3", "rate": 0.25}, "class_name": "Dropout"}, {"name": "flatten_2", "inbound_nodes": [[["dropout_3", 0, 0, {}]]], "config": {"trainable": true, "name": "flatten_2"}, "class_name": "Flatten"}, {"name": "dense_3", "inbound_nodes": [[["flatten_2", 0, 0, {}]]], "config": {"kernel_constraint": null, "name": "dense_3", "kernel_initializer": {"class_name": "VarianceScaling", "config": {"seed": null, "mode": "fan_avg", "scale": 1.0, "distribution": "uniform"}}, "trainable": true, "use_bias": true, "bias_constraint": null, "units": 512, "activity_regularizer": null, "kernel_regularizer": null, "activation": "relu", "bias_regularizer": null, "bias_initializer": {"class_name": "Zeros", "config": {}}}, "class_name": "Dense"}, {"name": "dropout_4", "inbound_nodes": [[["dense_3", 0, 0, {}]]], "config": {"trainable": true, "name": "dropout_4", "rate": 0.5}, "class_name": "Dropout"}, {"name": "dense_4", "inbound_nodes": [[["dropout_4", 0, 0, {}]]], "config": {"kernel_constraint": null, "name": "dense_4", "kernel_initializer": {"class_name": "VarianceScaling", "config": {"seed": null, "mode": "fan_avg", "scale": 1.0, "distribution": "uniform"}}, "trainable": true, "use_bias": true, "bias_constraint": null, "units": 10, "activity_regularizer": null, "kernel_regularizer": null, "activation": "softmax", "bias_regularizer": null, "bias_initializer": {"class_name": "Zeros", "config": {}}}, "class_name": "Dense"}], "name": "model_2", "input_layers": [["input_2", 0, 0]], "output_layers": [["dense_4", 0, 0]]}}, "model_3": {"user_arch": ["conv_relu", "maxpool", "dropout", "conv_relu", "maxpool", "dropout"], "epochs": {"epoch_1": {"conv_layers": {}, "scores": {"accr": 0.9521, "loss": 0.17231117060780526}}, "epoch_0": {"conv_layers": {}, "scores": {"accr": 0.9233, "loss": 0.2859945572733879}}}, "arch_tf": {"layers": [{"name": "input_4", "inbound_nodes": [], "config": {"batch_input_shape": [null, 28, 28, 1], "sparse": false, "dtype": "float32", "name": "input_4"}, "class_name": "InputLayer"}, {"name": "conv_0", "inbound_nodes": [[["input_4", 0, 0, {}]]], "config": {"kernel_constraint": null, "name": "conv_0", "kernel_initializer": {"class_name": "VarianceScaling", "config": {"seed": null, "mode": "fan_avg", "scale": 1.0, "distribution": "uniform"}}, "trainable": true, "activation": "relu", "use_bias": true, "dilation_rate": [1, 1], "activity_regularizer": null, "kernel_regularizer": null, "filters": 8, "strides": [1, 1], "padding": "same", "bias_regularizer": null, "bias_constraint": null, "bias_initializer": {"class_name": "Zeros", "config": {}}, "kernel_size": [5, 5], "data_format": "channels_last"}, "class_name": "Conv2D"}, {"name": "max_pooling2d_5", "inbound_nodes": [[["conv_0", 0, 0, {}]]], "config": {"name": "max_pooling2d_5", "data_format": "channels_last", "strides": [2, 2], "trainable": true, "pool_size": [2, 2], "padding": "valid"}, "class_name": "MaxPooling2D"}, {"name": "dropout_8", "inbound_nodes": [[["max_pooling2d_5", 0, 0, {}]]], "config": {"trainable": true, "name": "dropout_8", "rate": 0.25}, "class_name": "Dropout"}, {"name": "conv_1", "inbound_nodes": [[["dropout_8", 0, 0, {}]]], "config": {"kernel_constraint": null, "name": "conv_1", "kernel_initializer": {"class_name": "VarianceScaling", "config": {"seed": null, "mode": "fan_avg", "scale": 1.0, "distribution": "uniform"}}, "trainable": true, "activation": "relu", "use_bias": true, "dilation_rate": [1, 1], "activity_regularizer": null, "kernel_regularizer": null, "filters": 8, "strides": [1, 1], "padding": "same", "bias_regularizer": null, "bias_constraint": null, "bias_initializer": {"class_name": "Zeros", "config": {}}, "kernel_size": [5, 5], "data_format": "channels_last"}, "class_name": "Conv2D"}, {"name": "max_pooling2d_6", "inbound_nodes": [[["conv_1", 0, 0, {}]]], "config": {"name": "max_pooling2d_6", "data_format": "channels_last", "strides": [2, 2], "trainable": true, "pool_size": [2, 2], "padding": "valid"}, "class_name": "MaxPooling2D"}, {"name": "dropout_9", "inbound_nodes": [[["max_pooling2d_6", 0, 0, {}]]], "config": {"trainable": true, "name": "dropout_9", "rate": 0.25}, "class_name": "Dropout"}, {"name": "flatten_4", "inbound_nodes": [[["dropout_9", 0, 0, {}]]], "config": {"trainable": true, "name": "flatten_4"}, "class_name": "Flatten"}, {"name": "dense_7", "inbound_nodes": [[["flatten_4", 0, 0, {}]]], "config": {"kernel_constraint": null, "name": "dense_7", "kernel_initializer": {"class_name": "VarianceScaling", "config": {"seed": null, "mode": "fan_avg", "scale": 1.0, "distribution": "uniform"}}, "trainable": true, "use_bias": true, "bias_constraint": null, "units": 512, "activity_regularizer": null, "kernel_regularizer": null, "activation": "relu", "bias_regularizer": null, "bias_initializer": {"class_name": "Zeros", "config": {}}}, "class_name": "Dense"}, {"name": "dropout_10", "inbound_nodes": [[["dense_7", 0, 0, {}]]], "config": {"trainable": true, "name": "dropout_10", "rate": 0.5}, "class_name": "Dropout"}, {"name": "dense_8", "inbound_nodes": [[["dropout_10", 0, 0, {}]]], "config": {"kernel_constraint": null, "name": "dense_8", "kernel_initializer": {"class_name": "VarianceScaling", "config": {"seed": null, "mode": "fan_avg", "scale": 1.0, "distribution": "uniform"}}, "trainable": true, "use_bias": true, "bias_constraint": null, "units": 10, "activity_regularizer": null, "kernel_regularizer": null, "activation": "softmax", "bias_regularizer": null, "bias_initializer": {"class_name": "Zeros", "config": {}}}, "class_name": "Dense"}], "name": "model_4", "input_layers": [["input_4", 0, 0]], "output_layers": [["dense_8", 0, 0]]}}, "model_0": {"user_arch": ["conv_relu", "maxpool", "dropout"], "epochs": {"epoch_1": {"conv_layers": {}, "scores": {"accr": 0.9454, "loss": 0.19180760552585124}}, "epoch_0": {"conv_layers": {}, "scores": {"accr": 0.9197, "loss": 0.2847149212658405}}}, "arch_tf": {"layers": [{"name": "input_1", "inbound_nodes": [], "config": {"batch_input_shape": [null, 28, 28, 1], "sparse": false, "dtype": "float32", "name": "input_1"}, "class_name": "InputLayer"}, {"name": "conv_0", "inbound_nodes": [[["input_1", 0, 0, {}]]], "config": {"kernel_constraint": null, "name": "conv_0", "kernel_initializer": {"class_name": "VarianceScaling", "config": {"seed": null, "mode": "fan_avg", "scale": 1.0, "distribution": "uniform"}}, "trainable": true, "activation": "relu", "use_bias": true, "dilation_rate": [1, 1], "activity_regularizer": null, "kernel_regularizer": null, "filters": 8, "strides": [1, 1], "padding": "same", "bias_regularizer": null, "bias_constraint": null, "bias_initializer": {"class_name": "Zeros", "config": {}}, "kernel_size": [3, 3], "data_format": "channels_last"}, "class_name": "Conv2D"}, {"name": "max_pooling2d_1", "inbound_nodes": [[["conv_0", 0, 0, {}]]], "config": {"name": "max_pooling2d_1", "data_format": "channels_last", "strides": [2, 2], "trainable": true, "pool_size": [2, 2], "padding": "valid"}, "class_name": "MaxPooling2D"}, {"name": "dropout_1", "inbound_nodes": [[["max_pooling2d_1", 0, 0, {}]]], "config": {"trainable": true, "name": "dropout_1", "rate": 0.25}, "class_name": "Dropout"}, {"name": "flatten_1", "inbound_nodes": [[["dropout_1", 0, 0, {}]]], "config": {"trainable": true, "name": "flatten_1"}, "class_name": "Flatten"}, {"name": "dense_1", "inbound_nodes": [[["flatten_1", 0, 0, {}]]], "config": {"kernel_constraint": null, "name": "dense_1", "kernel_initializer": {"class_name": "VarianceScaling", "config": {"seed": null, "mode": "fan_avg", "scale": 1.0, "distribution": "uniform"}}, "trainable": true, "use_bias": true, "bias_constraint": null, "units": 512, "activity_regularizer": null, "kernel_regularizer": null, "activation": "relu", "bias_regularizer": null, "bias_initializer": {"class_name": "Zeros", "config": {}}}, "class_name": "Dense"}, {"name": "dropout_2", "inbound_nodes": [[["dense_1", 0, 0, {}]]], "config": {"trainable": true, "name": "dropout_2", "rate": 0.5}, "class_name": "Dropout"}, {"name": "dense_2", "inbound_nodes": [[["dropout_2", 0, 0, {}]]], "config": {"kernel_constraint": null, "name": "dense_2", "kernel_initializer": {"class_name": "VarianceScaling", "config": {"seed": null, "mode": "fan_avg", "scale": 1.0, "distribution": "uniform"}}, "trainable": true, "use_bias": true, "bias_constraint": null, "units": 10, "activity_regularizer": null, "kernel_regularizer": null, "activation": "softmax", "bias_regularizer": null, "bias_initializer": {"class_name": "Zeros", "config": {}}}, "class_name": "Dense"}], "name": "model_1", "input_layers": [["input_1", 0, 0]], "output_layers": [["dense_2", 0, 0]]}}, "model_5": {"user_arch": ["conv_relu", "conv_relu", "maxpool", "dropout"], "epochs": {"epoch_1": {"conv_layers": {}, "scores": {"accr": 0.9621, "loss": 0.124393143350631}}, "epoch_0": {"conv_layers": {}, "scores": {"accr": 0.9443, "loss": 0.1860834680005908}}}, "arch_tf": {"layers": [{"name": "input_6", "inbound_nodes": [], "config": {"batch_input_shape": [null, 28, 28, 1], "sparse": false, "dtype": "float32", "name": "input_6"}, "class_name": "InputLayer"}, {"name": "conv_0", "inbound_nodes": [[["input_6", 0, 0, {}]]], "config": {"kernel_constraint": null, "name": "conv_0", "kernel_initializer": {"class_name": "VarianceScaling", "config": {"seed": null, "mode": "fan_avg", "scale": 1.0, "distribution": "uniform"}}, "trainable": true, "activation": "relu", "use_bias": true, "dilation_rate": [1, 1], "activity_regularizer": null, "kernel_regularizer": null, "filters": 8, "strides": [1, 1], "padding": "same", "bias_regularizer": null, "bias_constraint": null, "bias_initializer": {"class_name": "Zeros", "config": {}}, "kernel_size": [5, 5], "data_format": "channels_last"}, "class_name": "Conv2D"}, {"name": "conv_1", "inbound_nodes": [[["conv_0", 0, 0, {}]]], "config": {"kernel_constraint": null, "name": "conv_1", "kernel_initializer": {"class_name": "VarianceScaling", "config": {"seed": null, "mode": "fan_avg", "scale": 1.0, "distribution": "uniform"}}, "trainable": true, "activation": "relu", "use_bias": true, "dilation_rate": [1, 1], "activity_regularizer": null, "kernel_regularizer": null, "filters": 8, "strides": [1, 1], "padding": "same", "bias_regularizer": null, "bias_constraint": null, "bias_initializer": {"class_name": "Zeros", "config": {}}, "kernel_size": [5, 5], "data_format": "channels_last"}, "class_name": "Conv2D"}, {"name": "max_pooling2d_8", "inbound_nodes": [[["conv_1", 0, 0, {}]]], "config": {"name": "max_pooling2d_8", "data_format": "channels_last", "strides": [2, 2], "trainable": true, "pool_size": [2, 2], "padding": "valid"}, "class_name": "MaxPooling2D"}, {"name": "dropout_13", "inbound_nodes": [[["max_pooling2d_8", 0, 0, {}]]], "config": {"trainable": true, "name": "dropout_13", "rate": 0.25}, "class_name": "Dropout"}, {"name": "flatten_6", "inbound_nodes": [[["dropout_13", 0, 0, {}]]], "config": {"trainable": true, "name": "flatten_6"}, "class_name": "Flatten"}, {"name": "dense_11", "inbound_nodes": [[["flatten_6", 0, 0, {}]]], "config": {"kernel_constraint": null, "name": "dense_11", "kernel_initializer": {"class_name": "VarianceScaling", "config": {"seed": null, "mode": "fan_avg", "scale": 1.0, "distribution": "uniform"}}, "trainable": true, "use_bias": true, "bias_constraint": null, "units": 512, "activity_regularizer": null, "kernel_regularizer": null, "activation": "relu", "bias_regularizer": null, "bias_initializer": {"class_name": "Zeros", "config": {}}}, "class_name": "Dense"}, {"name": "dropout_14", "inbound_nodes": [[["dense_11", 0, 0, {}]]], "config": {"trainable": true, "name": "dropout_14", "rate": 0.5}, "class_name": "Dropout"}, {"name": "dense_12", "inbound_nodes": [[["dropout_14", 0, 0, {}]]], "config": {"kernel_constraint": null, "name": "dense_12", "kernel_initializer": {"class_name": "VarianceScaling", "config": {"seed": null, "mode": "fan_avg", "scale": 1.0, "distribution": "uniform"}}, "trainable": true, "use_bias": true, "bias_constraint": null, "units": 10, "activity_regularizer": null, "kernel_regularizer": null, "activation": "softmax", "bias_regularizer": null, "bias_initializer": {"class_name": "Zeros", "config": {}}}, "class_name": "Dense"}], "name": "model_6", "input_layers": [["input_6", 0, 0]], "output_layers": [["dense_12", 0, 0]]}}, "model_4": {"user_arch": ["conv_relu", "conv_relu", "maxpool", "dropout"], "epochs": {"epoch_1": {"conv_layers": {}, "scores": {"accr": 0.9576, "loss": 0.1435902940467}}, "epoch_0": {"conv_layers": {}, "scores": {"accr": 0.9379, "loss": 0.21807347224652768}}}, "arch_tf": {"layers": [{"name": "input_5", "inbound_nodes": [], "config": {"batch_input_shape": [null, 28, 28, 1], "sparse": false, "dtype": "float32", "name": "input_5"}, "class_name": "InputLayer"}, {"name": "conv_0", "inbound_nodes": [[["input_5", 0, 0, {}]]], "config": {"kernel_constraint": null, "name": "conv_0", "kernel_initializer": {"class_name": "VarianceScaling", "config": {"seed": null, "mode": "fan_avg", "scale": 1.0, "distribution": "uniform"}}, "trainable": true, "activation": "relu", "use_bias": true, "dilation_rate": [1, 1], "activity_regularizer": null, "kernel_regularizer": null, "filters": 8, "strides": [1, 1], "padding": "same", "bias_regularizer": null, "bias_constraint": null, "bias_initializer": {"class_name": "Zeros", "config": {}}, "kernel_size": [3, 3], "data_format": "channels_last"}, "class_name": "Conv2D"}, {"name": "conv_1", "inbound_nodes": [[["conv_0", 0, 0, {}]]], "config": {"kernel_constraint": null, "name": "conv_1", "kernel_initializer": {"class_name": "VarianceScaling", "config": {"seed": null, "mode": "fan_avg", "scale": 1.0, "distribution": "uniform"}}, "trainable": true, "activation": "relu", "use_bias": true, "dilation_rate": [1, 1], "activity_regularizer": null, "kernel_regularizer": null, "filters": 8, "strides": [1, 1], "padding": "same", "bias_regularizer": null, "bias_constraint": null, "bias_initializer": {"class_name": "Zeros", "config": {}}, "kernel_size": [3, 3], "data_format": "channels_last"}, "class_name": "Conv2D"}, {"name": "max_pooling2d_7", "inbound_nodes": [[["conv_1", 0, 0, {}]]], "config": {"name": "max_pooling2d_7", "data_format": "channels_last", "strides": [2, 2], "trainable": true, "pool_size": [2, 2], "padding": "valid"}, "class_name": "MaxPooling2D"}, {"name": "dropout_11", "inbound_nodes": [[["max_pooling2d_7", 0, 0, {}]]], "config": {"trainable": true, "name": "dropout_11", "rate": 0.25}, "class_name": "Dropout"}, {"name": "flatten_5", "inbound_nodes": [[["dropout_11", 0, 0, {}]]], "config": {"trainable": true, "name": "flatten_5"}, "class_name": "Flatten"}, {"name": "dense_9", "inbound_nodes": [[["flatten_5", 0, 0, {}]]], "config": {"kernel_constraint": null, "name": "dense_9", "kernel_initializer": {"class_name": "VarianceScaling", "config": {"seed": null, "mode": "fan_avg", "scale": 1.0, "distribution": "uniform"}}, "trainable": true, "use_bias": true, "bias_constraint": null, "units": 512, "activity_regularizer": null, "kernel_regularizer": null, "activation": "relu", "bias_regularizer": null, "bias_initializer": {"class_name": "Zeros", "config": {}}}, "class_name": "Dense"}, {"name": "dropout_12", "inbound_nodes": [[["dense_9", 0, 0, {}]]], "config": {"trainable": true, "name": "dropout_12", "rate": 0.5}, "class_name": "Dropout"}, {"name": "dense_10", "inbound_nodes": [[["dropout_12", 0, 0, {}]]], "config": {"kernel_constraint": null, "name": "dense_10", "kernel_initializer": {"class_name": "VarianceScaling", "config": {"seed": null, "mode": "fan_avg", "scale": 1.0, "distribution": "uniform"}}, "trainable": true, "use_bias": true, "bias_constraint": null, "units": 10, "activity_regularizer": null, "kernel_regularizer": null, "activation": "softmax", "bias_regularizer": null, "bias_initializer": {"class_name": "Zeros", "config": {}}}, "class_name": "Dense"}], "name": "model_5", "input_layers": [["input_5", 0, 0]], "output_layers": [["dense_10", 0, 0]]}}, "model_2": {"user_arch": ["conv_relu", "maxpool", "dropout", "conv_relu", "maxpool", "dropout"], "epochs": {"epoch_1": {"conv_layers": {}, "scores": {"accr": 0.9195, "loss": 0.28406653175354}}, "epoch_0": {"conv_layers": {}, "scores": {"accr": 0.8889, "loss": 0.41695972144603727}}}, "arch_tf": {"layers": [{"name": "input_3", "inbound_nodes": [], "config": {"batch_input_shape": [null, 28, 28, 1], "sparse": false, "dtype": "float32", "name": "input_3"}, "class_name": "InputLayer"}, {"name": "conv_0", "inbound_nodes": [[["input_3", 0, 0, {}]]], "config": {"kernel_constraint": null, "name": "conv_0", "kernel_initializer": {"class_name": "VarianceScaling", "config": {"seed": null, "mode": "fan_avg", "scale": 1.0, "distribution": "uniform"}}, "trainable": true, "activation": "relu", "use_bias": true, "dilation_rate": [1, 1], "activity_regularizer": null, "kernel_regularizer": null, "filters": 8, "strides": [1, 1], "padding": "same", "bias_regularizer": null, "bias_constraint": null, "bias_initializer": {"class_name": "Zeros", "config": {}}, "kernel_size": [3, 3], "data_format": "channels_last"}, "class_name": "Conv2D"}, {"name": "max_pooling2d_3", "inbound_nodes": [[["conv_0", 0, 0, {}]]], "config": {"name": "max_pooling2d_3", "data_format": "channels_last", "strides": [2, 2], "trainable": true, "pool_size": [2, 2], "padding": "valid"}, "class_name": "MaxPooling2D"}, {"name": "dropout_5", "inbound_nodes": [[["max_pooling2d_3", 0, 0, {}]]], "config": {"trainable": true, "name": "dropout_5", "rate": 0.25}, "class_name": "Dropout"}, {"name": "conv_1", "inbound_nodes": [[["dropout_5", 0, 0, {}]]], "config": {"kernel_constraint": null, "name": "conv_1", "kernel_initializer": {"class_name": "VarianceScaling", "config": {"seed": null, "mode": "fan_avg", "scale": 1.0, "distribution": "uniform"}}, "trainable": true, "activation": "relu", "use_bias": true, "dilation_rate": [1, 1], "activity_regularizer": null, "kernel_regularizer": null, "filters": 8, "strides": [1, 1], "padding": "same", "bias_regularizer": null, "bias_constraint": null, "bias_initializer": {"class_name": "Zeros", "config": {}}, "kernel_size": [3, 3], "data_format": "channels_last"}, "class_name": "Conv2D"}, {"name": "max_pooling2d_4", "inbound_nodes": [[["conv_1", 0, 0, {}]]], "config": {"name": "max_pooling2d_4", "data_format": "channels_last", "strides": [2, 2], "trainable": true, "pool_size": [2, 2], "padding": "valid"}, "class_name": "MaxPooling2D"}, {"name": "dropout_6", "inbound_nodes": [[["max_pooling2d_4", 0, 0, {}]]], "config": {"trainable": true, "name": "dropout_6", "rate": 0.25}, "class_name": "Dropout"}, {"name": "flatten_3", "inbound_nodes": [[["dropout_6", 0, 0, {}]]], "config": {"trainable": true, "name": "flatten_3"}, "class_name": "Flatten"}, {"name": "dense_5", "inbound_nodes": [[["flatten_3", 0, 0, {}]]], "config": {"kernel_constraint": null, "name": "dense_5", "kernel_initializer": {"class_name": "VarianceScaling", "config": {"seed": null, "mode": "fan_avg", "scale": 1.0, "distribution": "uniform"}}, "trainable": true, "use_bias": true, "bias_constraint": null, "units": 512, "activity_regularizer": null, "kernel_regularizer": null, "activation": "relu", "bias_regularizer": null, "bias_initializer": {"class_name": "Zeros", "config": {}}}, "class_name": "Dense"}, {"name": "dropout_7", "inbound_nodes": [[["dense_5", 0, 0, {}]]], "config": {"trainable": true, "name": "dropout_7", "rate": 0.5}, "class_name": "Dropout"}, {"name": "dense_6", "inbound_nodes": [[["dropout_7", 0, 0, {}]]], "config": {"kernel_constraint": null, "name": "dense_6", "kernel_initializer": {"class_name": "VarianceScaling", "config": {"seed": null, "mode": "fan_avg", "scale": 1.0, "distribution": "uniform"}}, "trainable": true, "use_bias": true, "bias_constraint": null, "units": 10, "activity_regularizer": null, "kernel_regularizer": null, "activation": "softmax", "bias_regularizer": null, "bias_initializer": {"class_name": "Zeros", "config": {}}}, "class_name": "Dense"}], "name": "model_3", "input_layers": [["input_3", 0, 0]], "output_layers": [["dense_6", 0, 0]]}}}