{"backend": "tensorflow", "keras_version": "2.0.2", "config": {"name": "model_6", "input_layers": [["input_6", 0, 0]], "layers": [{"name": "input_6", "config": {"name": "input_6", "sparse": false, "batch_input_shape": [null, 28, 28, 1], "dtype": "float32"}, "inbound_nodes": [], "class_name": "InputLayer"}, {"name": "conv_0", "config": {"kernel_regularizer": null, "padding": "same", "kernel_size": [5, 5], "activation": "linear", "kernel_initializer": {"config": {"seed": null, "distribution": "uniform", "scale": 1.0, "mode": "fan_avg"}, "class_name": "VarianceScaling"}, "name": "conv_0", "use_bias": true, "bias_constraint": null, "dilation_rate": [1, 1], "strides": [1, 1], "activity_regularizer": null, "bias_regularizer": null, "filters": 8, "trainable": true, "data_format": "channels_last", "kernel_constraint": null, "bias_initializer": {"config": {}, "class_name": "Zeros"}}, "inbound_nodes": [[["input_6", 0, 0, {}]]], "class_name": "Conv2D"}, {"name": "relu_0", "config": {"bias_regularizer": null, "activation": "relu", "kernel_initializer": {"config": {"seed": null, "distribution": "uniform", "scale": 1.0, "mode": "fan_avg"}, "class_name": "VarianceScaling"}, "units": 28, "use_bias": true, "bias_constraint": null, "name": "relu_0", "kernel_regularizer": null, "activity_regularizer": null, "trainable": true, "kernel_constraint": null, "bias_initializer": {"config": {}, "class_name": "Zeros"}}, "inbound_nodes": [[["conv_0", 0, 0, {}]]], "class_name": "Dense"}, {"name": "conv_1", "config": {"kernel_regularizer": null, "padding": "same", "kernel_size": [5, 5], "activation": "linear", "kernel_initializer": {"config": {"seed": null, "distribution": "uniform", "scale": 1.0, "mode": "fan_avg"}, "class_name": "VarianceScaling"}, "name": "conv_1", "use_bias": true, "bias_constraint": null, "dilation_rate": [1, 1], "strides": [1, 1], "activity_regularizer": null, "bias_regularizer": null, "filters": 8, "trainable": true, "data_format": "channels_last", "kernel_constraint": null, "bias_initializer": {"config": {}, "class_name": "Zeros"}}, "inbound_nodes": [[["relu_0", 0, 0, {}]]], "class_name": "Conv2D"}, {"name": "relu_1", "config": {"bias_regularizer": null, "activation": "relu", "kernel_initializer": {"config": {"seed": null, "distribution": "uniform", "scale": 1.0, "mode": "fan_avg"}, "class_name": "VarianceScaling"}, "units": 28, "use_bias": true, "bias_constraint": null, "name": "relu_1", "kernel_regularizer": null, "activity_regularizer": null, "trainable": true, "kernel_constraint": null, "bias_initializer": {"config": {}, "class_name": "Zeros"}}, "inbound_nodes": [[["conv_1", 0, 0, {}]]], "class_name": "Dense"}, {"name": "maxpool_0", "config": {"strides": [2, 2], "name": "maxpool_0", "pool_size": [2, 2], "padding": "valid", "trainable": true, "data_format": "channels_last"}, "inbound_nodes": [[["relu_1", 0, 0, {}]]], "class_name": "MaxPooling2D"}, {"name": "dropout_13", "config": {"rate": 0.25, "name": "dropout_13", "trainable": true}, "inbound_nodes": [[["maxpool_0", 0, 0, {}]]], "class_name": "Dropout"}, {"name": "flatten_6", "config": {"name": "flatten_6", "trainable": true}, "inbound_nodes": [[["dropout_13", 0, 0, {}]]], "class_name": "Flatten"}, {"name": "dense_11", "config": {"bias_regularizer": null, "activation": "relu", "kernel_initializer": {"config": {"seed": null, "distribution": "uniform", "scale": 1.0, "mode": "fan_avg"}, "class_name": "VarianceScaling"}, "units": 512, "use_bias": true, "bias_constraint": null, "name": "dense_11", "kernel_regularizer": null, "activity_regularizer": null, "trainable": true, "kernel_constraint": null, "bias_initializer": {"config": {}, "class_name": "Zeros"}}, "inbound_nodes": [[["flatten_6", 0, 0, {}]]], "class_name": "Dense"}, {"name": "dropout_14", "config": {"rate": 0.5, "name": "dropout_14", "trainable": true}, "inbound_nodes": [[["dense_11", 0, 0, {}]]], "class_name": "Dropout"}, {"name": "dense_12", "config": {"bias_regularizer": null, "activation": "softmax", "kernel_initializer": {"config": {"seed": null, "distribution": "uniform", "scale": 1.0, "mode": "fan_avg"}, "class_name": "VarianceScaling"}, "units": 10, "use_bias": true, "bias_constraint": null, "name": "dense_12", "kernel_regularizer": null, "activity_regularizer": null, "trainable": true, "kernel_constraint": null, "bias_initializer": {"config": {}, "class_name": "Zeros"}}, "inbound_nodes": [[["dropout_14", 0, 0, {}]]], "class_name": "Dense"}], "output_layers": [["dense_12", 0, 0]]}, "class_name": "Model"}