{"model_4": {"arch_tf": {"layers": [{"name": "input_5", "inbound_nodes": [], "config": {"sparse": false, "name": "input_5", "batch_input_shape": [null, 28, 28, 1], "dtype": "float32"}, "class_name": "InputLayer"}, {"name": "conv_0", "inbound_nodes": [[["input_5", 0, 0, {}]]], "config": {"dilation_rate": [1, 1], "kernel_size": [3, 3], "name": "conv_0", "strides": [1, 1], "padding": "same", "kernel_constraint": null, "use_bias": true, "kernel_initializer": {"config": {"mode": "fan_avg", "scale": 1.0, "seed": null, "distribution": "uniform"}, "class_name": "VarianceScaling"}, "trainable": true, "bias_initializer": {"config": {}, "class_name": "Zeros"}, "activation": "linear", "activity_regularizer": null, "kernel_regularizer": null, "bias_regularizer": null, "filters": 8, "data_format": "channels_last", "bias_constraint": null}, "class_name": "Conv2D"}, {"name": "relu_0", "inbound_nodes": [[["conv_0", 0, 0, {}]]], "config": {"activation": "relu", "name": "relu_0", "kernel_constraint": null, "use_bias": true, "kernel_initializer": {"config": {"mode": "fan_avg", "scale": 1.0, "seed": null, "distribution": "uniform"}, "class_name": "VarianceScaling"}, "trainable": true, "bias_initializer": {"config": {}, "class_name": "Zeros"}, "activity_regularizer": null, "units": 28, "kernel_regularizer": null, "bias_regularizer": null, "bias_constraint": null}, "class_name": "Dense"}, {"name": "conv_1", "inbound_nodes": [[["relu_0", 0, 0, {}]]], "config": {"dilation_rate": [1, 1], "kernel_size": [3, 3], "name": "conv_1", "strides": [1, 1], "padding": "same", "kernel_constraint": null, "use_bias": true, "kernel_initializer": {"config": {"mode": "fan_avg", "scale": 1.0, "seed": null, "distribution": "uniform"}, "class_name": "VarianceScaling"}, "trainable": true, "bias_initializer": {"config": {}, "class_name": "Zeros"}, "activation": "linear", "activity_regularizer": null, "kernel_regularizer": null, "bias_regularizer": null, "filters": 8, "data_format": "channels_last", "bias_constraint": null}, "class_name": "Conv2D"}, {"name": "relu_1", "inbound_nodes": [[["conv_1", 0, 0, {}]]], "config": {"activation": "relu", "name": "relu_1", "kernel_constraint": null, "use_bias": true, "kernel_initializer": {"config": {"mode": "fan_avg", "scale": 1.0, "seed": null, "distribution": "uniform"}, "class_name": "VarianceScaling"}, "trainable": true, "bias_initializer": {"config": {}, "class_name": "Zeros"}, "activity_regularizer": null, "units": 28, "kernel_regularizer": null, "bias_regularizer": null, "bias_constraint": null}, "class_name": "Dense"}, {"name": "maxpool_0", "inbound_nodes": [[["relu_1", 0, 0, {}]]], "config": {"trainable": true, "name": "maxpool_0", "strides": [2, 2], "padding": "valid", "data_format": "channels_last", "pool_size": [2, 2]}, "class_name": "MaxPooling2D"}, {"name": "dropout_11", "inbound_nodes": [[["maxpool_0", 0, 0, {}]]], "config": {"trainable": true, "name": "dropout_11", "rate": 0.25}, "class_name": "Dropout"}, {"name": "flatten_5", "inbound_nodes": [[["dropout_11", 0, 0, {}]]], "config": {"trainable": true, "name": "flatten_5"}, "class_name": "Flatten"}, {"name": "dense_9", "inbound_nodes": [[["flatten_5", 0, 0, {}]]], "config": {"activation": "relu", "name": "dense_9", "kernel_constraint": null, "use_bias": true, "kernel_initializer": {"config": {"mode": "fan_avg", "scale": 1.0, "seed": null, "distribution": "uniform"}, "class_name": "VarianceScaling"}, "trainable": true, "bias_initializer": {"config": {}, "class_name": "Zeros"}, "activity_regularizer": null, "units": 512, "kernel_regularizer": null, "bias_regularizer": null, "bias_constraint": null}, "class_name": "Dense"}, {"name": "dropout_12", "inbound_nodes": [[["dense_9", 0, 0, {}]]], "config": {"trainable": true, "name": "dropout_12", "rate": 0.5}, "class_name": "Dropout"}, {"name": "dense_10", "inbound_nodes": [[["dropout_12", 0, 0, {}]]], "config": {"activation": "softmax", "name": "dense_10", "kernel_constraint": null, "use_bias": true, "kernel_initializer": {"config": {"mode": "fan_avg", "scale": 1.0, "seed": null, "distribution": "uniform"}, "class_name": "VarianceScaling"}, "trainable": true, "bias_initializer": {"config": {}, "class_name": "Zeros"}, "activity_regularizer": null, "units": 10, "kernel_regularizer": null, "bias_regularizer": null, "bias_constraint": null}, "class_name": "Dense"}], "output_layers": [["dense_10", 0, 0]], "name": "model_5", "input_layers": [["input_5", 0, 0]]}, "epochs": {"epoch_16": {"conv_layers": {}, "scores": {"loss": 0.044152366964319574, "accr": 0.9897}}, "epoch_6": {"conv_layers": {}, "scores": {"loss": 0.02827320397884032, "accr": 0.9913}}, "epoch_4": {"conv_layers": {}, "scores": {"loss": 0.03005523787934799, "accr": 0.9901}}, "epoch_1": {"conv_layers": {}, "scores": {"loss": 0.043687993435072715, "accr": 0.9854}}, "epoch_10": {"conv_layers": {}, "scores": {"loss": 0.025895926962867633, "accr": 0.9924}}, "epoch_18": {"conv_layers": {}, "scores": {"loss": 0.03177417003820628, "accr": 0.9921}}, "epoch_13": {"conv_layers": {}, "scores": {"loss": 0.028731346693820433, "accr": 0.9913}}, "epoch_14": {"conv_layers": {}, "scores": {"loss": 0.029730030614575118, "accr": 0.9919}}, "epoch_8": {"conv_layers": {}, "scores": {"loss": 0.02876305368131252, "accr": 0.9916}}, "epoch_5": {"conv_layers": {}, "scores": {"loss": 0.03072559723714694, "accr": 0.9898}}, "epoch_19": {"conv_layers": {}, "scores": {"loss": 0.03311880049221245, "accr": 0.9909}}, "epoch_11": {"conv_layers": {}, "scores": {"loss": 0.029751568665055402, "accr": 0.9917}}, "epoch_9": {"conv_layers": {}, "scores": {"loss": 0.02630302431781165, "accr": 0.9922}}, "epoch_0": {"conv_layers": {}, "scores": {"loss": 0.06703773169489577, "accr": 0.9776}}, "epoch_15": {"conv_layers": {}, "scores": {"loss": 0.03467011977385346, "accr": 0.991}}, "epoch_17": {"conv_layers": {}, "scores": {"loss": 0.03039957125973224, "accr": 0.9925}}, "epoch_3": {"conv_layers": {}, "scores": {"loss": 0.03350049139462062, "accr": 0.9875}}, "epoch_12": {"conv_layers": {}, "scores": {"loss": 0.028511211783425826, "accr": 0.9921}}, "epoch_7": {"conv_layers": {}, "scores": {"loss": 0.027329935073928936, "accr": 0.991}}, "epoch_2": {"conv_layers": {}, "scores": {"loss": 0.03354369257282233, "accr": 0.9903}}}, "user_arch": ["conv", "relu", "conv", "relu", "maxpool", "dropout"]}, "model_3": {"arch_tf": {"layers": [{"name": "input_4", "inbound_nodes": [], "config": {"sparse": false, "name": "input_4", "batch_input_shape": [null, 28, 28, 1], "dtype": "float32"}, "class_name": "InputLayer"}, {"name": "conv_0", "inbound_nodes": [[["input_4", 0, 0, {}]]], "config": {"dilation_rate": [1, 1], "kernel_size": [5, 5], "name": "conv_0", "strides": [1, 1], "padding": "same", "kernel_constraint": null, "use_bias": true, "kernel_initializer": {"config": {"mode": "fan_avg", "scale": 1.0, "seed": null, "distribution": "uniform"}, "class_name": "VarianceScaling"}, "trainable": true, "bias_initializer": {"config": {}, "class_name": "Zeros"}, "activation": "linear", "activity_regularizer": null, "kernel_regularizer": null, "bias_regularizer": null, "filters": 8, "data_format": "channels_last", "bias_constraint": null}, "class_name": "Conv2D"}, {"name": "relu_0", "inbound_nodes": [[["conv_0", 0, 0, {}]]], "config": {"activation": "relu", "name": "relu_0", "kernel_constraint": null, "use_bias": true, "kernel_initializer": {"config": {"mode": "fan_avg", "scale": 1.0, "seed": null, "distribution": "uniform"}, "class_name": "VarianceScaling"}, "trainable": true, "bias_initializer": {"config": {}, "class_name": "Zeros"}, "activity_regularizer": null, "units": 28, "kernel_regularizer": null, "bias_regularizer": null, "bias_constraint": null}, "class_name": "Dense"}, {"name": "maxpool_0", "inbound_nodes": [[["relu_0", 0, 0, {}]]], "config": {"trainable": true, "name": "maxpool_0", "strides": [2, 2], "padding": "valid", "data_format": "channels_last", "pool_size": [2, 2]}, "class_name": "MaxPooling2D"}, {"name": "dropout_8", "inbound_nodes": [[["maxpool_0", 0, 0, {}]]], "config": {"trainable": true, "name": "dropout_8", "rate": 0.25}, "class_name": "Dropout"}, {"name": "conv_1", "inbound_nodes": [[["dropout_8", 0, 0, {}]]], "config": {"dilation_rate": [1, 1], "kernel_size": [5, 5], "name": "conv_1", "strides": [1, 1], "padding": "same", "kernel_constraint": null, "use_bias": true, "kernel_initializer": {"config": {"mode": "fan_avg", "scale": 1.0, "seed": null, "distribution": "uniform"}, "class_name": "VarianceScaling"}, "trainable": true, "bias_initializer": {"config": {}, "class_name": "Zeros"}, "activation": "linear", "activity_regularizer": null, "kernel_regularizer": null, "bias_regularizer": null, "filters": 8, "data_format": "channels_last", "bias_constraint": null}, "class_name": "Conv2D"}, {"name": "relu_1", "inbound_nodes": [[["conv_1", 0, 0, {}]]], "config": {"activation": "relu", "name": "relu_1", "kernel_constraint": null, "use_bias": true, "kernel_initializer": {"config": {"mode": "fan_avg", "scale": 1.0, "seed": null, "distribution": "uniform"}, "class_name": "VarianceScaling"}, "trainable": true, "bias_initializer": {"config": {}, "class_name": "Zeros"}, "activity_regularizer": null, "units": 28, "kernel_regularizer": null, "bias_regularizer": null, "bias_constraint": null}, "class_name": "Dense"}, {"name": "maxpool_1", "inbound_nodes": [[["relu_1", 0, 0, {}]]], "config": {"trainable": true, "name": "maxpool_1", "strides": [2, 2], "padding": "valid", "data_format": "channels_last", "pool_size": [2, 2]}, "class_name": "MaxPooling2D"}, {"name": "dropout_9", "inbound_nodes": [[["maxpool_1", 0, 0, {}]]], "config": {"trainable": true, "name": "dropout_9", "rate": 0.25}, "class_name": "Dropout"}, {"name": "flatten_4", "inbound_nodes": [[["dropout_9", 0, 0, {}]]], "config": {"trainable": true, "name": "flatten_4"}, "class_name": "Flatten"}, {"name": "dense_7", "inbound_nodes": [[["flatten_4", 0, 0, {}]]], "config": {"activation": "relu", "name": "dense_7", "kernel_constraint": null, "use_bias": true, "kernel_initializer": {"config": {"mode": "fan_avg", "scale": 1.0, "seed": null, "distribution": "uniform"}, "class_name": "VarianceScaling"}, "trainable": true, "bias_initializer": {"config": {}, "class_name": "Zeros"}, "activity_regularizer": null, "units": 512, "kernel_regularizer": null, "bias_regularizer": null, "bias_constraint": null}, "class_name": "Dense"}, {"name": "dropout_10", "inbound_nodes": [[["dense_7", 0, 0, {}]]], "config": {"trainable": true, "name": "dropout_10", "rate": 0.5}, "class_name": "Dropout"}, {"name": "dense_8", "inbound_nodes": [[["dropout_10", 0, 0, {}]]], "config": {"activation": "softmax", "name": "dense_8", "kernel_constraint": null, "use_bias": true, "kernel_initializer": {"config": {"mode": "fan_avg", "scale": 1.0, "seed": null, "distribution": "uniform"}, "class_name": "VarianceScaling"}, "trainable": true, "bias_initializer": {"config": {}, "class_name": "Zeros"}, "activity_regularizer": null, "units": 10, "kernel_regularizer": null, "bias_regularizer": null, "bias_constraint": null}, "class_name": "Dense"}], "output_layers": [["dense_8", 0, 0]], "name": "model_4", "input_layers": [["input_4", 0, 0]]}, "epochs": {"epoch_16": {"conv_layers": {}, "scores": {"loss": 0.021941033433511437, "accr": 0.9932}}, "epoch_6": {"conv_layers": {}, "scores": {"loss": 0.025419372809922788, "accr": 0.9914}}, "epoch_4": {"conv_layers": {}, "scores": {"loss": 0.02912917554951273, "accr": 0.99}}, "epoch_1": {"conv_layers": {}, "scores": {"loss": 0.05201406321758404, "accr": 0.9831}}, "epoch_10": {"conv_layers": {}, "scores": {"loss": 0.02233711262292345, "accr": 0.9925}}, "epoch_18": {"conv_layers": {}, "scores": {"loss": 0.02094349037306456, "accr": 0.9932}}, "epoch_13": {"conv_layers": {}, "scores": {"loss": 0.02116156620450638, "accr": 0.9932}}, "epoch_14": {"conv_layers": {}, "scores": {"loss": 0.024249815709959512, "accr": 0.9922}}, "epoch_8": {"conv_layers": {}, "scores": {"loss": 0.025477727411865634, "accr": 0.9916}}, "epoch_5": {"conv_layers": {}, "scores": {"loss": 0.027807424021954647, "accr": 0.9898}}, "epoch_19": {"conv_layers": {}, "scores": {"loss": 0.01981804488717944, "accr": 0.9936}}, "epoch_11": {"conv_layers": {}, "scores": {"loss": 0.0237883431386359, "accr": 0.9916}}, "epoch_9": {"conv_layers": {}, "scores": {"loss": 0.025403928939973775, "accr": 0.9922}}, "epoch_0": {"conv_layers": {}, "scores": {"loss": 0.07519359542238525, "accr": 0.9751}}, "epoch_15": {"conv_layers": {}, "scores": {"loss": 0.02123506436136813, "accr": 0.993}}, "epoch_17": {"conv_layers": {}, "scores": {"loss": 0.020701976794468918, "accr": 0.9933}}, "epoch_3": {"conv_layers": {}, "scores": {"loss": 0.03202426484088064, "accr": 0.989}}, "epoch_12": {"conv_layers": {}, "scores": {"loss": 0.02652650232489832, "accr": 0.9918}}, "epoch_7": {"conv_layers": {}, "scores": {"loss": 0.026149993513419758, "accr": 0.9917}}, "epoch_2": {"conv_layers": {}, "scores": {"loss": 0.03996097778507974, "accr": 0.9862}}}, "user_arch": ["conv", "relu", "maxpool", "dropout", "conv", "relu", "maxpool", "dropout"]}, "model_1": {"arch_tf": {"layers": [{"name": "input_2", "inbound_nodes": [], "config": {"sparse": false, "name": "input_2", "batch_input_shape": [null, 28, 28, 1], "dtype": "float32"}, "class_name": "InputLayer"}, {"name": "conv_0", "inbound_nodes": [[["input_2", 0, 0, {}]]], "config": {"dilation_rate": [1, 1], "kernel_size": [5, 5], "name": "conv_0", "strides": [1, 1], "padding": "same", "kernel_constraint": null, "use_bias": true, "kernel_initializer": {"config": {"mode": "fan_avg", "scale": 1.0, "seed": null, "distribution": "uniform"}, "class_name": "VarianceScaling"}, "trainable": true, "bias_initializer": {"config": {}, "class_name": "Zeros"}, "activation": "linear", "activity_regularizer": null, "kernel_regularizer": null, "bias_regularizer": null, "filters": 8, "data_format": "channels_last", "bias_constraint": null}, "class_name": "Conv2D"}, {"name": "relu_0", "inbound_nodes": [[["conv_0", 0, 0, {}]]], "config": {"activation": "relu", "name": "relu_0", "kernel_constraint": null, "use_bias": true, "kernel_initializer": {"config": {"mode": "fan_avg", "scale": 1.0, "seed": null, "distribution": "uniform"}, "class_name": "VarianceScaling"}, "trainable": true, "bias_initializer": {"config": {}, "class_name": "Zeros"}, "activity_regularizer": null, "units": 28, "kernel_regularizer": null, "bias_regularizer": null, "bias_constraint": null}, "class_name": "Dense"}, {"name": "maxpool_0", "inbound_nodes": [[["relu_0", 0, 0, {}]]], "config": {"trainable": true, "name": "maxpool_0", "strides": [2, 2], "padding": "valid", "data_format": "channels_last", "pool_size": [2, 2]}, "class_name": "MaxPooling2D"}, {"name": "dropout_3", "inbound_nodes": [[["maxpool_0", 0, 0, {}]]], "config": {"trainable": true, "name": "dropout_3", "rate": 0.25}, "class_name": "Dropout"}, {"name": "flatten_2", "inbound_nodes": [[["dropout_3", 0, 0, {}]]], "config": {"trainable": true, "name": "flatten_2"}, "class_name": "Flatten"}, {"name": "dense_3", "inbound_nodes": [[["flatten_2", 0, 0, {}]]], "config": {"activation": "relu", "name": "dense_3", "kernel_constraint": null, "use_bias": true, "kernel_initializer": {"config": {"mode": "fan_avg", "scale": 1.0, "seed": null, "distribution": "uniform"}, "class_name": "VarianceScaling"}, "trainable": true, "bias_initializer": {"config": {}, "class_name": "Zeros"}, "activity_regularizer": null, "units": 512, "kernel_regularizer": null, "bias_regularizer": null, "bias_constraint": null}, "class_name": "Dense"}, {"name": "dropout_4", "inbound_nodes": [[["dense_3", 0, 0, {}]]], "config": {"trainable": true, "name": "dropout_4", "rate": 0.5}, "class_name": "Dropout"}, {"name": "dense_4", "inbound_nodes": [[["dropout_4", 0, 0, {}]]], "config": {"activation": "softmax", "name": "dense_4", "kernel_constraint": null, "use_bias": true, "kernel_initializer": {"config": {"mode": "fan_avg", "scale": 1.0, "seed": null, "distribution": "uniform"}, "class_name": "VarianceScaling"}, "trainable": true, "bias_initializer": {"config": {}, "class_name": "Zeros"}, "activity_regularizer": null, "units": 10, "kernel_regularizer": null, "bias_regularizer": null, "bias_constraint": null}, "class_name": "Dense"}], "output_layers": [["dense_4", 0, 0]], "name": "model_2", "input_layers": [["input_2", 0, 0]]}, "epochs": {"epoch_16": {"conv_layers": {}, "scores": {"loss": 0.0340461271943067, "accr": 0.9905}}, "epoch_6": {"conv_layers": {}, "scores": {"loss": 0.030831800326309167, "accr": 0.9898}}, "epoch_4": {"conv_layers": {}, "scores": {"loss": 0.034180796674784505, "accr": 0.9892}}, "epoch_1": {"conv_layers": {}, "scores": {"loss": 0.04668909188471734, "accr": 0.9835}}, "epoch_10": {"conv_layers": {}, "scores": {"loss": 0.033885585526006796, "accr": 0.9898}}, "epoch_18": {"conv_layers": {}, "scores": {"loss": 0.03164022629250467, "accr": 0.9908}}, "epoch_13": {"conv_layers": {}, "scores": {"loss": 0.03329404120767576, "accr": 0.9904}}, "epoch_14": {"conv_layers": {}, "scores": {"loss": 0.03238359587430368, "accr": 0.991}}, "epoch_8": {"conv_layers": {}, "scores": {"loss": 0.029895627086742933, "accr": 0.9894}}, "epoch_5": {"conv_layers": {}, "scores": {"loss": 0.030329014089977135, "accr": 0.9898}}, "epoch_19": {"conv_layers": {}, "scores": {"loss": 0.0344033083819409, "accr": 0.9903}}, "epoch_11": {"conv_layers": {}, "scores": {"loss": 0.02918769764826502, "accr": 0.9905}}, "epoch_9": {"conv_layers": {}, "scores": {"loss": 0.031749229581448525, "accr": 0.9903}}, "epoch_0": {"conv_layers": {}, "scores": {"loss": 0.06812855928950012, "accr": 0.9789}}, "epoch_15": {"conv_layers": {}, "scores": {"loss": 0.03675002797015668, "accr": 0.9904}}, "epoch_17": {"conv_layers": {}, "scores": {"loss": 0.036071177249775925, "accr": 0.9901}}, "epoch_3": {"conv_layers": {}, "scores": {"loss": 0.034311600930429995, "accr": 0.989}}, "epoch_12": {"conv_layers": {}, "scores": {"loss": 0.03476028235126264, "accr": 0.9901}}, "epoch_7": {"conv_layers": {}, "scores": {"loss": 0.03106919199559052, "accr": 0.9892}}, "epoch_2": {"conv_layers": {}, "scores": {"loss": 0.03882016061784234, "accr": 0.9867}}}, "user_arch": ["conv", "relu", "maxpool", "dropout"]}, "model_0": {"arch_tf": {"layers": [{"name": "input_1", "inbound_nodes": [], "config": {"sparse": false, "name": "input_1", "batch_input_shape": [null, 28, 28, 1], "dtype": "float32"}, "class_name": "InputLayer"}, {"name": "conv_0", "inbound_nodes": [[["input_1", 0, 0, {}]]], "config": {"dilation_rate": [1, 1], "kernel_size": [3, 3], "name": "conv_0", "strides": [1, 1], "padding": "same", "kernel_constraint": null, "use_bias": true, "kernel_initializer": {"config": {"mode": "fan_avg", "scale": 1.0, "seed": null, "distribution": "uniform"}, "class_name": "VarianceScaling"}, "trainable": true, "bias_initializer": {"config": {}, "class_name": "Zeros"}, "activation": "linear", "activity_regularizer": null, "kernel_regularizer": null, "bias_regularizer": null, "filters": 8, "data_format": "channels_last", "bias_constraint": null}, "class_name": "Conv2D"}, {"name": "relu_0", "inbound_nodes": [[["conv_0", 0, 0, {}]]], "config": {"activation": "relu", "name": "relu_0", "kernel_constraint": null, "use_bias": true, "kernel_initializer": {"config": {"mode": "fan_avg", "scale": 1.0, "seed": null, "distribution": "uniform"}, "class_name": "VarianceScaling"}, "trainable": true, "bias_initializer": {"config": {}, "class_name": "Zeros"}, "activity_regularizer": null, "units": 28, "kernel_regularizer": null, "bias_regularizer": null, "bias_constraint": null}, "class_name": "Dense"}, {"name": "maxpool_0", "inbound_nodes": [[["relu_0", 0, 0, {}]]], "config": {"trainable": true, "name": "maxpool_0", "strides": [2, 2], "padding": "valid", "data_format": "channels_last", "pool_size": [2, 2]}, "class_name": "MaxPooling2D"}, {"name": "dropout_1", "inbound_nodes": [[["maxpool_0", 0, 0, {}]]], "config": {"trainable": true, "name": "dropout_1", "rate": 0.25}, "class_name": "Dropout"}, {"name": "flatten_1", "inbound_nodes": [[["dropout_1", 0, 0, {}]]], "config": {"trainable": true, "name": "flatten_1"}, "class_name": "Flatten"}, {"name": "dense_1", "inbound_nodes": [[["flatten_1", 0, 0, {}]]], "config": {"activation": "relu", "name": "dense_1", "kernel_constraint": null, "use_bias": true, "kernel_initializer": {"config": {"mode": "fan_avg", "scale": 1.0, "seed": null, "distribution": "uniform"}, "class_name": "VarianceScaling"}, "trainable": true, "bias_initializer": {"config": {}, "class_name": "Zeros"}, "activity_regularizer": null, "units": 512, "kernel_regularizer": null, "bias_regularizer": null, "bias_constraint": null}, "class_name": "Dense"}, {"name": "dropout_2", "inbound_nodes": [[["dense_1", 0, 0, {}]]], "config": {"trainable": true, "name": "dropout_2", "rate": 0.5}, "class_name": "Dropout"}, {"name": "dense_2", "inbound_nodes": [[["dropout_2", 0, 0, {}]]], "config": {"activation": "softmax", "name": "dense_2", "kernel_constraint": null, "use_bias": true, "kernel_initializer": {"config": {"mode": "fan_avg", "scale": 1.0, "seed": null, "distribution": "uniform"}, "class_name": "VarianceScaling"}, "trainable": true, "bias_initializer": {"config": {}, "class_name": "Zeros"}, "activity_regularizer": null, "units": 10, "kernel_regularizer": null, "bias_regularizer": null, "bias_constraint": null}, "class_name": "Dense"}], "output_layers": [["dense_2", 0, 0]], "name": "model_1", "input_layers": [["input_1", 0, 0]]}, "epochs": {"epoch_16": {"conv_layers": {}, "scores": {"loss": 0.036459013869272985, "accr": 0.9884}}, "epoch_6": {"conv_layers": {}, "scores": {"loss": 0.036665054643590704, "accr": 0.9889}}, "epoch_4": {"conv_layers": {}, "scores": {"loss": 0.034811540174804395, "accr": 0.9873}}, "epoch_1": {"conv_layers": {}, "scores": {"loss": 0.05119349867226556, "accr": 0.9832}}, "epoch_10": {"conv_layers": {}, "scores": {"loss": 0.03769994313014686, "accr": 0.9874}}, "epoch_18": {"conv_layers": {}, "scores": {"loss": 0.038215321239336575, "accr": 0.9893}}, "epoch_13": {"conv_layers": {}, "scores": {"loss": 0.03435276733845167, "accr": 0.99}}, "epoch_14": {"conv_layers": {}, "scores": {"loss": 0.03741524263131523, "accr": 0.9895}}, "epoch_8": {"conv_layers": {}, "scores": {"loss": 0.03248436502743279, "accr": 0.9901}}, "epoch_5": {"conv_layers": {}, "scores": {"loss": 0.04309402786961291, "accr": 0.9862}}, "epoch_19": {"conv_layers": {}, "scores": {"loss": 0.036253668641690454, "accr": 0.9898}}, "epoch_11": {"conv_layers": {}, "scores": {"loss": 0.03182454037605785, "accr": 0.9903}}, "epoch_9": {"conv_layers": {}, "scores": {"loss": 0.035457341672202165, "accr": 0.9889}}, "epoch_0": {"conv_layers": {}, "scores": {"loss": 0.0723969033665955, "accr": 0.9766}}, "epoch_15": {"conv_layers": {}, "scores": {"loss": 0.03978680465110065, "accr": 0.9903}}, "epoch_17": {"conv_layers": {}, "scores": {"loss": 0.03718417877279453, "accr": 0.9897}}, "epoch_3": {"conv_layers": {}, "scores": {"loss": 0.04150846998544876, "accr": 0.9849}}, "epoch_12": {"conv_layers": {}, "scores": {"loss": 0.036363071511622186, "accr": 0.9879}}, "epoch_7": {"conv_layers": {}, "scores": {"loss": 0.03722514634960171, "accr": 0.9884}}, "epoch_2": {"conv_layers": {}, "scores": {"loss": 0.04826630325922743, "accr": 0.9837}}}, "user_arch": ["conv", "relu", "maxpool", "dropout"]}, "model_2": {"arch_tf": {"layers": [{"name": "input_3", "inbound_nodes": [], "config": {"sparse": false, "name": "input_3", "batch_input_shape": [null, 28, 28, 1], "dtype": "float32"}, "class_name": "InputLayer"}, {"name": "conv_0", "inbound_nodes": [[["input_3", 0, 0, {}]]], "config": {"dilation_rate": [1, 1], "kernel_size": [3, 3], "name": "conv_0", "strides": [1, 1], "padding": "same", "kernel_constraint": null, "use_bias": true, "kernel_initializer": {"config": {"mode": "fan_avg", "scale": 1.0, "seed": null, "distribution": "uniform"}, "class_name": "VarianceScaling"}, "trainable": true, "bias_initializer": {"config": {}, "class_name": "Zeros"}, "activation": "linear", "activity_regularizer": null, "kernel_regularizer": null, "bias_regularizer": null, "filters": 8, "data_format": "channels_last", "bias_constraint": null}, "class_name": "Conv2D"}, {"name": "relu_0", "inbound_nodes": [[["conv_0", 0, 0, {}]]], "config": {"activation": "relu", "name": "relu_0", "kernel_constraint": null, "use_bias": true, "kernel_initializer": {"config": {"mode": "fan_avg", "scale": 1.0, "seed": null, "distribution": "uniform"}, "class_name": "VarianceScaling"}, "trainable": true, "bias_initializer": {"config": {}, "class_name": "Zeros"}, "activity_regularizer": null, "units": 28, "kernel_regularizer": null, "bias_regularizer": null, "bias_constraint": null}, "class_name": "Dense"}, {"name": "maxpool_0", "inbound_nodes": [[["relu_0", 0, 0, {}]]], "config": {"trainable": true, "name": "maxpool_0", "strides": [2, 2], "padding": "valid", "data_format": "channels_last", "pool_size": [2, 2]}, "class_name": "MaxPooling2D"}, {"name": "dropout_5", "inbound_nodes": [[["maxpool_0", 0, 0, {}]]], "config": {"trainable": true, "name": "dropout_5", "rate": 0.25}, "class_name": "Dropout"}, {"name": "conv_1", "inbound_nodes": [[["dropout_5", 0, 0, {}]]], "config": {"dilation_rate": [1, 1], "kernel_size": [3, 3], "name": "conv_1", "strides": [1, 1], "padding": "same", "kernel_constraint": null, "use_bias": true, "kernel_initializer": {"config": {"mode": "fan_avg", "scale": 1.0, "seed": null, "distribution": "uniform"}, "class_name": "VarianceScaling"}, "trainable": true, "bias_initializer": {"config": {}, "class_name": "Zeros"}, "activation": "linear", "activity_regularizer": null, "kernel_regularizer": null, "bias_regularizer": null, "filters": 8, "data_format": "channels_last", "bias_constraint": null}, "class_name": "Conv2D"}, {"name": "relu_1", "inbound_nodes": [[["conv_1", 0, 0, {}]]], "config": {"activation": "relu", "name": "relu_1", "kernel_constraint": null, "use_bias": true, "kernel_initializer": {"config": {"mode": "fan_avg", "scale": 1.0, "seed": null, "distribution": "uniform"}, "class_name": "VarianceScaling"}, "trainable": true, "bias_initializer": {"config": {}, "class_name": "Zeros"}, "activity_regularizer": null, "units": 28, "kernel_regularizer": null, "bias_regularizer": null, "bias_constraint": null}, "class_name": "Dense"}, {"name": "maxpool_1", "inbound_nodes": [[["relu_1", 0, 0, {}]]], "config": {"trainable": true, "name": "maxpool_1", "strides": [2, 2], "padding": "valid", "data_format": "channels_last", "pool_size": [2, 2]}, "class_name": "MaxPooling2D"}, {"name": "dropout_6", "inbound_nodes": [[["maxpool_1", 0, 0, {}]]], "config": {"trainable": true, "name": "dropout_6", "rate": 0.25}, "class_name": "Dropout"}, {"name": "flatten_3", "inbound_nodes": [[["dropout_6", 0, 0, {}]]], "config": {"trainable": true, "name": "flatten_3"}, "class_name": "Flatten"}, {"name": "dense_5", "inbound_nodes": [[["flatten_3", 0, 0, {}]]], "config": {"activation": "relu", "name": "dense_5", "kernel_constraint": null, "use_bias": true, "kernel_initializer": {"config": {"mode": "fan_avg", "scale": 1.0, "seed": null, "distribution": "uniform"}, "class_name": "VarianceScaling"}, "trainable": true, "bias_initializer": {"config": {}, "class_name": "Zeros"}, "activity_regularizer": null, "units": 512, "kernel_regularizer": null, "bias_regularizer": null, "bias_constraint": null}, "class_name": "Dense"}, {"name": "dropout_7", "inbound_nodes": [[["dense_5", 0, 0, {}]]], "config": {"trainable": true, "name": "dropout_7", "rate": 0.5}, "class_name": "Dropout"}, {"name": "dense_6", "inbound_nodes": [[["dropout_7", 0, 0, {}]]], "config": {"activation": "softmax", "name": "dense_6", "kernel_constraint": null, "use_bias": true, "kernel_initializer": {"config": {"mode": "fan_avg", "scale": 1.0, "seed": null, "distribution": "uniform"}, "class_name": "VarianceScaling"}, "trainable": true, "bias_initializer": {"config": {}, "class_name": "Zeros"}, "activity_regularizer": null, "units": 10, "kernel_regularizer": null, "bias_regularizer": null, "bias_constraint": null}, "class_name": "Dense"}], "output_layers": [["dense_6", 0, 0]], "name": "model_3", "input_layers": [["input_3", 0, 0]]}, "epochs": {"epoch_16": {"conv_layers": {}, "scores": {"loss": 0.024750799407962404, "accr": 0.9921}}, "epoch_6": {"conv_layers": {}, "scores": {"loss": 0.032692224795738, "accr": 0.9888}}, "epoch_4": {"conv_layers": {}, "scores": {"loss": 0.03623067152738804, "accr": 0.9871}}, "epoch_1": {"conv_layers": {}, "scores": {"loss": 0.05588695964091457, "accr": 0.9819}}, "epoch_10": {"conv_layers": {}, "scores": {"loss": 0.0259227081299352, "accr": 0.9909}}, "epoch_18": {"conv_layers": {}, "scores": {"loss": 0.024223610398920938, "accr": 0.9921}}, "epoch_13": {"conv_layers": {}, "scores": {"loss": 0.027978343606804266, "accr": 0.99}}, "epoch_14": {"conv_layers": {}, "scores": {"loss": 0.026695076882218564, "accr": 0.9907}}, "epoch_8": {"conv_layers": {}, "scores": {"loss": 0.02894024698959547, "accr": 0.9909}}, "epoch_5": {"conv_layers": {}, "scores": {"loss": 0.03297405712496256, "accr": 0.9903}}, "epoch_19": {"conv_layers": {}, "scores": {"loss": 0.02878430629598006, "accr": 0.9915}}, "epoch_11": {"conv_layers": {}, "scores": {"loss": 0.028869158313921072, "accr": 0.99}}, "epoch_9": {"conv_layers": {}, "scores": {"loss": 0.028990515229881567, "accr": 0.9906}}, "epoch_0": {"conv_layers": {}, "scores": {"loss": 0.07386648143781349, "accr": 0.9752}}, "epoch_15": {"conv_layers": {}, "scores": {"loss": 0.024834375846961482, "accr": 0.9915}}, "epoch_17": {"conv_layers": {}, "scores": {"loss": 0.02630811871473452, "accr": 0.9911}}, "epoch_3": {"conv_layers": {}, "scores": {"loss": 0.04200214079690631, "accr": 0.9866}}, "epoch_12": {"conv_layers": {}, "scores": {"loss": 0.02955286397002201, "accr": 0.9903}}, "epoch_7": {"conv_layers": {}, "scores": {"loss": 0.03227406299279537, "accr": 0.9892}}, "epoch_2": {"conv_layers": {}, "scores": {"loss": 0.04528458214052953, "accr": 0.9852}}}, "user_arch": ["conv", "relu", "maxpool", "dropout", "conv", "relu", "maxpool", "dropout"]}, "model_5": {"arch_tf": {"layers": [{"name": "input_6", "inbound_nodes": [], "config": {"sparse": false, "name": "input_6", "batch_input_shape": [null, 28, 28, 1], "dtype": "float32"}, "class_name": "InputLayer"}, {"name": "conv_0", "inbound_nodes": [[["input_6", 0, 0, {}]]], "config": {"dilation_rate": [1, 1], "kernel_size": [5, 5], "name": "conv_0", "strides": [1, 1], "padding": "same", "kernel_constraint": null, "use_bias": true, "kernel_initializer": {"config": {"mode": "fan_avg", "scale": 1.0, "seed": null, "distribution": "uniform"}, "class_name": "VarianceScaling"}, "trainable": true, "bias_initializer": {"config": {}, "class_name": "Zeros"}, "activation": "linear", "activity_regularizer": null, "kernel_regularizer": null, "bias_regularizer": null, "filters": 8, "data_format": "channels_last", "bias_constraint": null}, "class_name": "Conv2D"}, {"name": "relu_0", "inbound_nodes": [[["conv_0", 0, 0, {}]]], "config": {"activation": "relu", "name": "relu_0", "kernel_constraint": null, "use_bias": true, "kernel_initializer": {"config": {"mode": "fan_avg", "scale": 1.0, "seed": null, "distribution": "uniform"}, "class_name": "VarianceScaling"}, "trainable": true, "bias_initializer": {"config": {}, "class_name": "Zeros"}, "activity_regularizer": null, "units": 28, "kernel_regularizer": null, "bias_regularizer": null, "bias_constraint": null}, "class_name": "Dense"}, {"name": "conv_1", "inbound_nodes": [[["relu_0", 0, 0, {}]]], "config": {"dilation_rate": [1, 1], "kernel_size": [5, 5], "name": "conv_1", "strides": [1, 1], "padding": "same", "kernel_constraint": null, "use_bias": true, "kernel_initializer": {"config": {"mode": "fan_avg", "scale": 1.0, "seed": null, "distribution": "uniform"}, "class_name": "VarianceScaling"}, "trainable": true, "bias_initializer": {"config": {}, "class_name": "Zeros"}, "activation": "linear", "activity_regularizer": null, "kernel_regularizer": null, "bias_regularizer": null, "filters": 8, "data_format": "channels_last", "bias_constraint": null}, "class_name": "Conv2D"}, {"name": "relu_1", "inbound_nodes": [[["conv_1", 0, 0, {}]]], "config": {"activation": "relu", "name": "relu_1", "kernel_constraint": null, "use_bias": true, "kernel_initializer": {"config": {"mode": "fan_avg", "scale": 1.0, "seed": null, "distribution": "uniform"}, "class_name": "VarianceScaling"}, "trainable": true, "bias_initializer": {"config": {}, "class_name": "Zeros"}, "activity_regularizer": null, "units": 28, "kernel_regularizer": null, "bias_regularizer": null, "bias_constraint": null}, "class_name": "Dense"}, {"name": "maxpool_0", "inbound_nodes": [[["relu_1", 0, 0, {}]]], "config": {"trainable": true, "name": "maxpool_0", "strides": [2, 2], "padding": "valid", "data_format": "channels_last", "pool_size": [2, 2]}, "class_name": "MaxPooling2D"}, {"name": "dropout_13", "inbound_nodes": [[["maxpool_0", 0, 0, {}]]], "config": {"trainable": true, "name": "dropout_13", "rate": 0.25}, "class_name": "Dropout"}, {"name": "flatten_6", "inbound_nodes": [[["dropout_13", 0, 0, {}]]], "config": {"trainable": true, "name": "flatten_6"}, "class_name": "Flatten"}, {"name": "dense_11", "inbound_nodes": [[["flatten_6", 0, 0, {}]]], "config": {"activation": "relu", "name": "dense_11", "kernel_constraint": null, "use_bias": true, "kernel_initializer": {"config": {"mode": "fan_avg", "scale": 1.0, "seed": null, "distribution": "uniform"}, "class_name": "VarianceScaling"}, "trainable": true, "bias_initializer": {"config": {}, "class_name": "Zeros"}, "activity_regularizer": null, "units": 512, "kernel_regularizer": null, "bias_regularizer": null, "bias_constraint": null}, "class_name": "Dense"}, {"name": "dropout_14", "inbound_nodes": [[["dense_11", 0, 0, {}]]], "config": {"trainable": true, "name": "dropout_14", "rate": 0.5}, "class_name": "Dropout"}, {"name": "dense_12", "inbound_nodes": [[["dropout_14", 0, 0, {}]]], "config": {"activation": "softmax", "name": "dense_12", "kernel_constraint": null, "use_bias": true, "kernel_initializer": {"config": {"mode": "fan_avg", "scale": 1.0, "seed": null, "distribution": "uniform"}, "class_name": "VarianceScaling"}, "trainable": true, "bias_initializer": {"config": {}, "class_name": "Zeros"}, "activity_regularizer": null, "units": 10, "kernel_regularizer": null, "bias_regularizer": null, "bias_constraint": null}, "class_name": "Dense"}], "output_layers": [["dense_12", 0, 0]], "name": "model_6", "input_layers": [["input_6", 0, 0]]}, "epochs": {"epoch_16": {"conv_layers": {}, "scores": {"loss": 0.028879586605925395, "accr": 0.9922}}, "epoch_6": {"conv_layers": {}, "scores": {"loss": 0.02473045940605698, "accr": 0.9921}}, "epoch_4": {"conv_layers": {}, "scores": {"loss": 0.0318800128335366, "accr": 0.99}}, "epoch_1": {"conv_layers": {}, "scores": {"loss": 0.0359122864714358, "accr": 0.989}}, "epoch_10": {"conv_layers": {}, "scores": {"loss": 0.02540847068193607, "accr": 0.9929}}, "epoch_18": {"conv_layers": {}, "scores": {"loss": 0.03611448646986487, "accr": 0.9915}}, "epoch_13": {"conv_layers": {}, "scores": {"loss": 0.030391783429711314, "accr": 0.9917}}, "epoch_14": {"conv_layers": {}, "scores": {"loss": 0.029512235795450942, "accr": 0.9923}}, "epoch_8": {"conv_layers": {}, "scores": {"loss": 0.028666279925866275, "accr": 0.9909}}, "epoch_5": {"conv_layers": {}, "scores": {"loss": 0.028440756945629257, "accr": 0.9908}}, "epoch_19": {"conv_layers": {}, "scores": {"loss": 0.025513777514263484, "accr": 0.9941}}, "epoch_11": {"conv_layers": {}, "scores": {"loss": 0.023516702752009677, "accr": 0.9933}}, "epoch_9": {"conv_layers": {}, "scores": {"loss": 0.02428774692603547, "accr": 0.9934}}, "epoch_0": {"conv_layers": {}, "scores": {"loss": 0.05015033153383992, "accr": 0.9823}}, "epoch_15": {"conv_layers": {}, "scores": {"loss": 0.027525081706133186, "accr": 0.9925}}, "epoch_17": {"conv_layers": {}, "scores": {"loss": 0.02792724939352388, "accr": 0.992}}, "epoch_3": {"conv_layers": {}, "scores": {"loss": 0.03486559074758552, "accr": 0.9883}}, "epoch_12": {"conv_layers": {}, "scores": {"loss": 0.02928680654886757, "accr": 0.9924}}, "epoch_7": {"conv_layers": {}, "scores": {"loss": 0.02662549696739261, "accr": 0.9918}}, "epoch_2": {"conv_layers": {}, "scores": {"loss": 0.03279161910021212, "accr": 0.9885}}}, "user_arch": ["conv", "relu", "conv", "relu", "maxpool", "dropout"]}}