{"model_5": {"epochs": {"epoch_0": {"conv_layers": {}, "scores": {"accr": 0.9505, "loss": 0.16668740513548255}}, "epoch_1": {"conv_layers": {}, "scores": {"accr": 0.9652, "loss": 0.10946155238058418}}}, "arch_tf": {"name": "model_6", "input_layers": [["input_6", 0, 0]], "layers": [{"name": "input_6", "config": {"name": "input_6", "sparse": false, "batch_input_shape": [null, 28, 28, 1], "dtype": "float32"}, "inbound_nodes": [], "class_name": "InputLayer"}, {"name": "conv_0", "config": {"kernel_regularizer": null, "padding": "same", "kernel_size": [5, 5], "activation": "linear", "kernel_initializer": {"config": {"seed": null, "distribution": "uniform", "scale": 1.0, "mode": "fan_avg"}, "class_name": "VarianceScaling"}, "name": "conv_0", "use_bias": true, "bias_constraint": null, "dilation_rate": [1, 1], "strides": [1, 1], "activity_regularizer": null, "bias_regularizer": null, "filters": 8, "trainable": true, "data_format": "channels_last", "kernel_constraint": null, "bias_initializer": {"config": {}, "class_name": "Zeros"}}, "inbound_nodes": [[["input_6", 0, 0, {}]]], "class_name": "Conv2D"}, {"name": "relu_0", "config": {"bias_regularizer": null, "activation": "relu", "kernel_initializer": {"config": {"seed": null, "distribution": "uniform", "scale": 1.0, "mode": "fan_avg"}, "class_name": "VarianceScaling"}, "units": 28, "use_bias": true, "bias_constraint": null, "name": "relu_0", "kernel_regularizer": null, "activity_regularizer": null, "trainable": true, "kernel_constraint": null, "bias_initializer": {"config": {}, "class_name": "Zeros"}}, "inbound_nodes": [[["conv_0", 0, 0, {}]]], "class_name": "Dense"}, {"name": "conv_1", "config": {"kernel_regularizer": null, "padding": "same", "kernel_size": [5, 5], "activation": "linear", "kernel_initializer": {"config": {"seed": null, "distribution": "uniform", "scale": 1.0, "mode": "fan_avg"}, "class_name": "VarianceScaling"}, "name": "conv_1", "use_bias": true, "bias_constraint": null, "dilation_rate": [1, 1], "strides": [1, 1], "activity_regularizer": null, "bias_regularizer": null, "filters": 8, "trainable": true, "data_format": "channels_last", "kernel_constraint": null, "bias_initializer": {"config": {}, "class_name": "Zeros"}}, "inbound_nodes": [[["relu_0", 0, 0, {}]]], "class_name": "Conv2D"}, {"name": "relu_1", "config": {"bias_regularizer": null, "activation": "relu", "kernel_initializer": {"config": {"seed": null, "distribution": "uniform", "scale": 1.0, "mode": "fan_avg"}, "class_name": "VarianceScaling"}, "units": 28, "use_bias": true, "bias_constraint": null, "name": "relu_1", "kernel_regularizer": null, "activity_regularizer": null, "trainable": true, "kernel_constraint": null, "bias_initializer": {"config": {}, "class_name": "Zeros"}}, "inbound_nodes": [[["conv_1", 0, 0, {}]]], "class_name": "Dense"}, {"name": "maxpool_0", "config": {"strides": [2, 2], "name": "maxpool_0", "pool_size": [2, 2], "padding": "valid", "trainable": true, "data_format": "channels_last"}, "inbound_nodes": [[["relu_1", 0, 0, {}]]], "class_name": "MaxPooling2D"}, {"name": "dropout_13", "config": {"rate": 0.25, "name": "dropout_13", "trainable": true}, "inbound_nodes": [[["maxpool_0", 0, 0, {}]]], "class_name": "Dropout"}, {"name": "flatten_6", "config": {"name": "flatten_6", "trainable": true}, "inbound_nodes": [[["dropout_13", 0, 0, {}]]], "class_name": "Flatten"}, {"name": "dense_11", "config": {"bias_regularizer": null, "activation": "relu", "kernel_initializer": {"config": {"seed": null, "distribution": "uniform", "scale": 1.0, "mode": "fan_avg"}, "class_name": "VarianceScaling"}, "units": 512, "use_bias": true, "bias_constraint": null, "name": "dense_11", "kernel_regularizer": null, "activity_regularizer": null, "trainable": true, "kernel_constraint": null, "bias_initializer": {"config": {}, "class_name": "Zeros"}}, "inbound_nodes": [[["flatten_6", 0, 0, {}]]], "class_name": "Dense"}, {"name": "dropout_14", "config": {"rate": 0.5, "name": "dropout_14", "trainable": true}, "inbound_nodes": [[["dense_11", 0, 0, {}]]], "class_name": "Dropout"}, {"name": "dense_12", "config": {"bias_regularizer": null, "activation": "softmax", "kernel_initializer": {"config": {"seed": null, "distribution": "uniform", "scale": 1.0, "mode": "fan_avg"}, "class_name": "VarianceScaling"}, "units": 10, "use_bias": true, "bias_constraint": null, "name": "dense_12", "kernel_regularizer": null, "activity_regularizer": null, "trainable": true, "kernel_constraint": null, "bias_initializer": {"config": {}, "class_name": "Zeros"}}, "inbound_nodes": [[["dropout_14", 0, 0, {}]]], "class_name": "Dense"}], "output_layers": [["dense_12", 0, 0]]}, "user_arch": ["conv", "relu", "conv", "relu", "maxpool", "dropout"]}, "model_1": {"epochs": {"epoch_0": {"conv_layers": {}, "scores": {"accr": 0.9402, "loss": 0.20407350149154663}}, "epoch_1": {"conv_layers": {}, "scores": {"accr": 0.9597, "loss": 0.12889784375205637}}}, "arch_tf": {"name": "model_2", "input_layers": [["input_2", 0, 0]], "layers": [{"name": "input_2", "config": {"name": "input_2", "sparse": false, "batch_input_shape": [null, 28, 28, 1], "dtype": "float32"}, "inbound_nodes": [], "class_name": "InputLayer"}, {"name": "conv_0", "config": {"kernel_regularizer": null, "padding": "same", "kernel_size": [5, 5], "activation": "linear", "kernel_initializer": {"config": {"seed": null, "distribution": "uniform", "scale": 1.0, "mode": "fan_avg"}, "class_name": "VarianceScaling"}, "name": "conv_0", "use_bias": true, "bias_constraint": null, "dilation_rate": [1, 1], "strides": [1, 1], "activity_regularizer": null, "bias_regularizer": null, "filters": 8, "trainable": true, "data_format": "channels_last", "kernel_constraint": null, "bias_initializer": {"config": {}, "class_name": "Zeros"}}, "inbound_nodes": [[["input_2", 0, 0, {}]]], "class_name": "Conv2D"}, {"name": "relu_0", "config": {"bias_regularizer": null, "activation": "relu", "kernel_initializer": {"config": {"seed": null, "distribution": "uniform", "scale": 1.0, "mode": "fan_avg"}, "class_name": "VarianceScaling"}, "units": 28, "use_bias": true, "bias_constraint": null, "name": "relu_0", "kernel_regularizer": null, "activity_regularizer": null, "trainable": true, "kernel_constraint": null, "bias_initializer": {"config": {}, "class_name": "Zeros"}}, "inbound_nodes": [[["conv_0", 0, 0, {}]]], "class_name": "Dense"}, {"name": "maxpool_0", "config": {"strides": [2, 2], "name": "maxpool_0", "pool_size": [2, 2], "padding": "valid", "trainable": true, "data_format": "channels_last"}, "inbound_nodes": [[["relu_0", 0, 0, {}]]], "class_name": "MaxPooling2D"}, {"name": "dropout_3", "config": {"rate": 0.25, "name": "dropout_3", "trainable": true}, "inbound_nodes": [[["maxpool_0", 0, 0, {}]]], "class_name": "Dropout"}, {"name": "flatten_2", "config": {"name": "flatten_2", "trainable": true}, "inbound_nodes": [[["dropout_3", 0, 0, {}]]], "class_name": "Flatten"}, {"name": "dense_3", "config": {"bias_regularizer": null, "activation": "relu", "kernel_initializer": {"config": {"seed": null, "distribution": "uniform", "scale": 1.0, "mode": "fan_avg"}, "class_name": "VarianceScaling"}, "units": 512, "use_bias": true, "bias_constraint": null, "name": "dense_3", "kernel_regularizer": null, "activity_regularizer": null, "trainable": true, "kernel_constraint": null, "bias_initializer": {"config": {}, "class_name": "Zeros"}}, "inbound_nodes": [[["flatten_2", 0, 0, {}]]], "class_name": "Dense"}, {"name": "dropout_4", "config": {"rate": 0.5, "name": "dropout_4", "trainable": true}, "inbound_nodes": [[["dense_3", 0, 0, {}]]], "class_name": "Dropout"}, {"name": "dense_4", "config": {"bias_regularizer": null, "activation": "softmax", "kernel_initializer": {"config": {"seed": null, "distribution": "uniform", "scale": 1.0, "mode": "fan_avg"}, "class_name": "VarianceScaling"}, "units": 10, "use_bias": true, "bias_constraint": null, "name": "dense_4", "kernel_regularizer": null, "activity_regularizer": null, "trainable": true, "kernel_constraint": null, "bias_initializer": {"config": {}, "class_name": "Zeros"}}, "inbound_nodes": [[["dropout_4", 0, 0, {}]]], "class_name": "Dense"}], "output_layers": [["dense_4", 0, 0]]}, "user_arch": ["conv", "relu", "maxpool", "dropout"]}, "model_3": {"epochs": {"epoch_0": {"conv_layers": {}, "scores": {"accr": 0.9416, "loss": 0.20437262874245643}}, "epoch_1": {"conv_layers": {}, "scores": {"accr": 0.9622, "loss": 0.12900197561085225}}}, "arch_tf": {"name": "model_4", "input_layers": [["input_4", 0, 0]], "layers": [{"name": "input_4", "config": {"name": "input_4", "sparse": false, "batch_input_shape": [null, 28, 28, 1], "dtype": "float32"}, "inbound_nodes": [], "class_name": "InputLayer"}, {"name": "conv_0", "config": {"kernel_regularizer": null, "padding": "same", "kernel_size": [5, 5], "activation": "linear", "kernel_initializer": {"config": {"seed": null, "distribution": "uniform", "scale": 1.0, "mode": "fan_avg"}, "class_name": "VarianceScaling"}, "name": "conv_0", "use_bias": true, "bias_constraint": null, "dilation_rate": [1, 1], "strides": [1, 1], "activity_regularizer": null, "bias_regularizer": null, "filters": 8, "trainable": true, "data_format": "channels_last", "kernel_constraint": null, "bias_initializer": {"config": {}, "class_name": "Zeros"}}, "inbound_nodes": [[["input_4", 0, 0, {}]]], "class_name": "Conv2D"}, {"name": "relu_0", "config": {"bias_regularizer": null, "activation": "relu", "kernel_initializer": {"config": {"seed": null, "distribution": "uniform", "scale": 1.0, "mode": "fan_avg"}, "class_name": "VarianceScaling"}, "units": 28, "use_bias": true, "bias_constraint": null, "name": "relu_0", "kernel_regularizer": null, "activity_regularizer": null, "trainable": true, "kernel_constraint": null, "bias_initializer": {"config": {}, "class_name": "Zeros"}}, "inbound_nodes": [[["conv_0", 0, 0, {}]]], "class_name": "Dense"}, {"name": "maxpool_0", "config": {"strides": [2, 2], "name": "maxpool_0", "pool_size": [2, 2], "padding": "valid", "trainable": true, "data_format": "channels_last"}, "inbound_nodes": [[["relu_0", 0, 0, {}]]], "class_name": "MaxPooling2D"}, {"name": "dropout_8", "config": {"rate": 0.25, "name": "dropout_8", "trainable": true}, "inbound_nodes": [[["maxpool_0", 0, 0, {}]]], "class_name": "Dropout"}, {"name": "conv_1", "config": {"kernel_regularizer": null, "padding": "same", "kernel_size": [5, 5], "activation": "linear", "kernel_initializer": {"config": {"seed": null, "distribution": "uniform", "scale": 1.0, "mode": "fan_avg"}, "class_name": "VarianceScaling"}, "name": "conv_1", "use_bias": true, "bias_constraint": null, "dilation_rate": [1, 1], "strides": [1, 1], "activity_regularizer": null, "bias_regularizer": null, "filters": 8, "trainable": true, "data_format": "channels_last", "kernel_constraint": null, "bias_initializer": {"config": {}, "class_name": "Zeros"}}, "inbound_nodes": [[["dropout_8", 0, 0, {}]]], "class_name": "Conv2D"}, {"name": "relu_1", "config": {"bias_regularizer": null, "activation": "relu", "kernel_initializer": {"config": {"seed": null, "distribution": "uniform", "scale": 1.0, "mode": "fan_avg"}, "class_name": "VarianceScaling"}, "units": 28, "use_bias": true, "bias_constraint": null, "name": "relu_1", "kernel_regularizer": null, "activity_regularizer": null, "trainable": true, "kernel_constraint": null, "bias_initializer": {"config": {}, "class_name": "Zeros"}}, "inbound_nodes": [[["conv_1", 0, 0, {}]]], "class_name": "Dense"}, {"name": "maxpool_1", "config": {"strides": [2, 2], "name": "maxpool_1", "pool_size": [2, 2], "padding": "valid", "trainable": true, "data_format": "channels_last"}, "inbound_nodes": [[["relu_1", 0, 0, {}]]], "class_name": "MaxPooling2D"}, {"name": "dropout_9", "config": {"rate": 0.25, "name": "dropout_9", "trainable": true}, "inbound_nodes": [[["maxpool_1", 0, 0, {}]]], "class_name": "Dropout"}, {"name": "flatten_4", "config": {"name": "flatten_4", "trainable": true}, "inbound_nodes": [[["dropout_9", 0, 0, {}]]], "class_name": "Flatten"}, {"name": "dense_7", "config": {"bias_regularizer": null, "activation": "relu", "kernel_initializer": {"config": {"seed": null, "distribution": "uniform", "scale": 1.0, "mode": "fan_avg"}, "class_name": "VarianceScaling"}, "units": 512, "use_bias": true, "bias_constraint": null, "name": "dense_7", "kernel_regularizer": null, "activity_regularizer": null, "trainable": true, "kernel_constraint": null, "bias_initializer": {"config": {}, "class_name": "Zeros"}}, "inbound_nodes": [[["flatten_4", 0, 0, {}]]], "class_name": "Dense"}, {"name": "dropout_10", "config": {"rate": 0.5, "name": "dropout_10", "trainable": true}, "inbound_nodes": [[["dense_7", 0, 0, {}]]], "class_name": "Dropout"}, {"name": "dense_8", "config": {"bias_regularizer": null, "activation": "softmax", "kernel_initializer": {"config": {"seed": null, "distribution": "uniform", "scale": 1.0, "mode": "fan_avg"}, "class_name": "VarianceScaling"}, "units": 10, "use_bias": true, "bias_constraint": null, "name": "dense_8", "kernel_regularizer": null, "activity_regularizer": null, "trainable": true, "kernel_constraint": null, "bias_initializer": {"config": {}, "class_name": "Zeros"}}, "inbound_nodes": [[["dropout_10", 0, 0, {}]]], "class_name": "Dense"}], "output_layers": [["dense_8", 0, 0]]}, "user_arch": ["conv", "relu", "maxpool", "dropout", "conv", "relu", "maxpool", "dropout"]}, "model_2": {"epochs": {"epoch_0": {"conv_layers": {}, "scores": {"accr": 0.9211, "loss": 0.2786811287999153}}, "epoch_1": {"conv_layers": {}, "scores": {"accr": 0.9452, "loss": 0.19021831260919572}}}, "arch_tf": {"name": "model_3", "input_layers": [["input_3", 0, 0]], "layers": [{"name": "input_3", "config": {"name": "input_3", "sparse": false, "batch_input_shape": [null, 28, 28, 1], "dtype": "float32"}, "inbound_nodes": [], "class_name": "InputLayer"}, {"name": "conv_0", "config": {"kernel_regularizer": null, "padding": "same", "kernel_size": [3, 3], "activation": "linear", "kernel_initializer": {"config": {"seed": null, "distribution": "uniform", "scale": 1.0, "mode": "fan_avg"}, "class_name": "VarianceScaling"}, "name": "conv_0", "use_bias": true, "bias_constraint": null, "dilation_rate": [1, 1], "strides": [1, 1], "activity_regularizer": null, "bias_regularizer": null, "filters": 8, "trainable": true, "data_format": "channels_last", "kernel_constraint": null, "bias_initializer": {"config": {}, "class_name": "Zeros"}}, "inbound_nodes": [[["input_3", 0, 0, {}]]], "class_name": "Conv2D"}, {"name": "relu_0", "config": {"bias_regularizer": null, "activation": "relu", "kernel_initializer": {"config": {"seed": null, "distribution": "uniform", "scale": 1.0, "mode": "fan_avg"}, "class_name": "VarianceScaling"}, "units": 28, "use_bias": true, "bias_constraint": null, "name": "relu_0", "kernel_regularizer": null, "activity_regularizer": null, "trainable": true, "kernel_constraint": null, "bias_initializer": {"config": {}, "class_name": "Zeros"}}, "inbound_nodes": [[["conv_0", 0, 0, {}]]], "class_name": "Dense"}, {"name": "maxpool_0", "config": {"strides": [2, 2], "name": "maxpool_0", "pool_size": [2, 2], "padding": "valid", "trainable": true, "data_format": "channels_last"}, "inbound_nodes": [[["relu_0", 0, 0, {}]]], "class_name": "MaxPooling2D"}, {"name": "dropout_5", "config": {"rate": 0.25, "name": "dropout_5", "trainable": true}, "inbound_nodes": [[["maxpool_0", 0, 0, {}]]], "class_name": "Dropout"}, {"name": "conv_1", "config": {"kernel_regularizer": null, "padding": "same", "kernel_size": [3, 3], "activation": "linear", "kernel_initializer": {"config": {"seed": null, "distribution": "uniform", "scale": 1.0, "mode": "fan_avg"}, "class_name": "VarianceScaling"}, "name": "conv_1", "use_bias": true, "bias_constraint": null, "dilation_rate": [1, 1], "strides": [1, 1], "activity_regularizer": null, "bias_regularizer": null, "filters": 8, "trainable": true, "data_format": "channels_last", "kernel_constraint": null, "bias_initializer": {"config": {}, "class_name": "Zeros"}}, "inbound_nodes": [[["dropout_5", 0, 0, {}]]], "class_name": "Conv2D"}, {"name": "relu_1", "config": {"bias_regularizer": null, "activation": "relu", "kernel_initializer": {"config": {"seed": null, "distribution": "uniform", "scale": 1.0, "mode": "fan_avg"}, "class_name": "VarianceScaling"}, "units": 28, "use_bias": true, "bias_constraint": null, "name": "relu_1", "kernel_regularizer": null, "activity_regularizer": null, "trainable": true, "kernel_constraint": null, "bias_initializer": {"config": {}, "class_name": "Zeros"}}, "inbound_nodes": [[["conv_1", 0, 0, {}]]], "class_name": "Dense"}, {"name": "maxpool_1", "config": {"strides": [2, 2], "name": "maxpool_1", "pool_size": [2, 2], "padding": "valid", "trainable": true, "data_format": "channels_last"}, "inbound_nodes": [[["relu_1", 0, 0, {}]]], "class_name": "MaxPooling2D"}, {"name": "dropout_6", "config": {"rate": 0.25, "name": "dropout_6", "trainable": true}, "inbound_nodes": [[["maxpool_1", 0, 0, {}]]], "class_name": "Dropout"}, {"name": "flatten_3", "config": {"name": "flatten_3", "trainable": true}, "inbound_nodes": [[["dropout_6", 0, 0, {}]]], "class_name": "Flatten"}, {"name": "dense_5", "config": {"bias_regularizer": null, "activation": "relu", "kernel_initializer": {"config": {"seed": null, "distribution": "uniform", "scale": 1.0, "mode": "fan_avg"}, "class_name": "VarianceScaling"}, "units": 512, "use_bias": true, "bias_constraint": null, "name": "dense_5", "kernel_regularizer": null, "activity_regularizer": null, "trainable": true, "kernel_constraint": null, "bias_initializer": {"config": {}, "class_name": "Zeros"}}, "inbound_nodes": [[["flatten_3", 0, 0, {}]]], "class_name": "Dense"}, {"name": "dropout_7", "config": {"rate": 0.5, "name": "dropout_7", "trainable": true}, "inbound_nodes": [[["dense_5", 0, 0, {}]]], "class_name": "Dropout"}, {"name": "dense_6", "config": {"bias_regularizer": null, "activation": "softmax", "kernel_initializer": {"config": {"seed": null, "distribution": "uniform", "scale": 1.0, "mode": "fan_avg"}, "class_name": "VarianceScaling"}, "units": 10, "use_bias": true, "bias_constraint": null, "name": "dense_6", "kernel_regularizer": null, "activity_regularizer": null, "trainable": true, "kernel_constraint": null, "bias_initializer": {"config": {}, "class_name": "Zeros"}}, "inbound_nodes": [[["dropout_7", 0, 0, {}]]], "class_name": "Dense"}], "output_layers": [["dense_6", 0, 0]]}, "user_arch": ["conv", "relu", "maxpool", "dropout", "conv", "relu", "maxpool", "dropout"]}, "model_0": {"epochs": {"epoch_0": {"conv_layers": {}, "scores": {"accr": 0.9388, "loss": 0.21570335450172423}}, "epoch_1": {"conv_layers": {}, "scores": {"accr": 0.9616, "loss": 0.13432172873094678}}}, "arch_tf": {"name": "model_1", "input_layers": [["input_1", 0, 0]], "layers": [{"name": "input_1", "config": {"name": "input_1", "sparse": false, "batch_input_shape": [null, 28, 28, 1], "dtype": "float32"}, "inbound_nodes": [], "class_name": "InputLayer"}, {"name": "conv_0", "config": {"kernel_regularizer": null, "padding": "same", "kernel_size": [3, 3], "activation": "linear", "kernel_initializer": {"config": {"seed": null, "distribution": "uniform", "scale": 1.0, "mode": "fan_avg"}, "class_name": "VarianceScaling"}, "name": "conv_0", "use_bias": true, "bias_constraint": null, "dilation_rate": [1, 1], "strides": [1, 1], "activity_regularizer": null, "bias_regularizer": null, "filters": 8, "trainable": true, "data_format": "channels_last", "kernel_constraint": null, "bias_initializer": {"config": {}, "class_name": "Zeros"}}, "inbound_nodes": [[["input_1", 0, 0, {}]]], "class_name": "Conv2D"}, {"name": "relu_0", "config": {"bias_regularizer": null, "activation": "relu", "kernel_initializer": {"config": {"seed": null, "distribution": "uniform", "scale": 1.0, "mode": "fan_avg"}, "class_name": "VarianceScaling"}, "units": 28, "use_bias": true, "bias_constraint": null, "name": "relu_0", "kernel_regularizer": null, "activity_regularizer": null, "trainable": true, "kernel_constraint": null, "bias_initializer": {"config": {}, "class_name": "Zeros"}}, "inbound_nodes": [[["conv_0", 0, 0, {}]]], "class_name": "Dense"}, {"name": "maxpool_0", "config": {"strides": [2, 2], "name": "maxpool_0", "pool_size": [2, 2], "padding": "valid", "trainable": true, "data_format": "channels_last"}, "inbound_nodes": [[["relu_0", 0, 0, {}]]], "class_name": "MaxPooling2D"}, {"name": "dropout_1", "config": {"rate": 0.25, "name": "dropout_1", "trainable": true}, "inbound_nodes": [[["maxpool_0", 0, 0, {}]]], "class_name": "Dropout"}, {"name": "flatten_1", "config": {"name": "flatten_1", "trainable": true}, "inbound_nodes": [[["dropout_1", 0, 0, {}]]], "class_name": "Flatten"}, {"name": "dense_1", "config": {"bias_regularizer": null, "activation": "relu", "kernel_initializer": {"config": {"seed": null, "distribution": "uniform", "scale": 1.0, "mode": "fan_avg"}, "class_name": "VarianceScaling"}, "units": 512, "use_bias": true, "bias_constraint": null, "name": "dense_1", "kernel_regularizer": null, "activity_regularizer": null, "trainable": true, "kernel_constraint": null, "bias_initializer": {"config": {}, "class_name": "Zeros"}}, "inbound_nodes": [[["flatten_1", 0, 0, {}]]], "class_name": "Dense"}, {"name": "dropout_2", "config": {"rate": 0.5, "name": "dropout_2", "trainable": true}, "inbound_nodes": [[["dense_1", 0, 0, {}]]], "class_name": "Dropout"}, {"name": "dense_2", "config": {"bias_regularizer": null, "activation": "softmax", "kernel_initializer": {"config": {"seed": null, "distribution": "uniform", "scale": 1.0, "mode": "fan_avg"}, "class_name": "VarianceScaling"}, "units": 10, "use_bias": true, "bias_constraint": null, "name": "dense_2", "kernel_regularizer": null, "activity_regularizer": null, "trainable": true, "kernel_constraint": null, "bias_initializer": {"config": {}, "class_name": "Zeros"}}, "inbound_nodes": [[["dropout_2", 0, 0, {}]]], "class_name": "Dense"}], "output_layers": [["dense_2", 0, 0]]}, "user_arch": ["conv", "relu", "maxpool", "dropout"]}, "model_4": {"epochs": {"epoch_0": {"conv_layers": {}, "scores": {"accr": 0.9359, "loss": 0.2220832493007183}}, "epoch_1": {"conv_layers": {}, "scores": {"accr": 0.9619, "loss": 0.1270467566691339}}}, "arch_tf": {"name": "model_5", "input_layers": [["input_5", 0, 0]], "layers": [{"name": "input_5", "config": {"name": "input_5", "sparse": false, "batch_input_shape": [null, 28, 28, 1], "dtype": "float32"}, "inbound_nodes": [], "class_name": "InputLayer"}, {"name": "conv_0", "config": {"kernel_regularizer": null, "padding": "same", "kernel_size": [3, 3], "activation": "linear", "kernel_initializer": {"config": {"seed": null, "distribution": "uniform", "scale": 1.0, "mode": "fan_avg"}, "class_name": "VarianceScaling"}, "name": "conv_0", "use_bias": true, "bias_constraint": null, "dilation_rate": [1, 1], "strides": [1, 1], "activity_regularizer": null, "bias_regularizer": null, "filters": 8, "trainable": true, "data_format": "channels_last", "kernel_constraint": null, "bias_initializer": {"config": {}, "class_name": "Zeros"}}, "inbound_nodes": [[["input_5", 0, 0, {}]]], "class_name": "Conv2D"}, {"name": "relu_0", "config": {"bias_regularizer": null, "activation": "relu", "kernel_initializer": {"config": {"seed": null, "distribution": "uniform", "scale": 1.0, "mode": "fan_avg"}, "class_name": "VarianceScaling"}, "units": 28, "use_bias": true, "bias_constraint": null, "name": "relu_0", "kernel_regularizer": null, "activity_regularizer": null, "trainable": true, "kernel_constraint": null, "bias_initializer": {"config": {}, "class_name": "Zeros"}}, "inbound_nodes": [[["conv_0", 0, 0, {}]]], "class_name": "Dense"}, {"name": "conv_1", "config": {"kernel_regularizer": null, "padding": "same", "kernel_size": [3, 3], "activation": "linear", "kernel_initializer": {"config": {"seed": null, "distribution": "uniform", "scale": 1.0, "mode": "fan_avg"}, "class_name": "VarianceScaling"}, "name": "conv_1", "use_bias": true, "bias_constraint": null, "dilation_rate": [1, 1], "strides": [1, 1], "activity_regularizer": null, "bias_regularizer": null, "filters": 8, "trainable": true, "data_format": "channels_last", "kernel_constraint": null, "bias_initializer": {"config": {}, "class_name": "Zeros"}}, "inbound_nodes": [[["relu_0", 0, 0, {}]]], "class_name": "Conv2D"}, {"name": "relu_1", "config": {"bias_regularizer": null, "activation": "relu", "kernel_initializer": {"config": {"seed": null, "distribution": "uniform", "scale": 1.0, "mode": "fan_avg"}, "class_name": "VarianceScaling"}, "units": 28, "use_bias": true, "bias_constraint": null, "name": "relu_1", "kernel_regularizer": null, "activity_regularizer": null, "trainable": true, "kernel_constraint": null, "bias_initializer": {"config": {}, "class_name": "Zeros"}}, "inbound_nodes": [[["conv_1", 0, 0, {}]]], "class_name": "Dense"}, {"name": "maxpool_0", "config": {"strides": [2, 2], "name": "maxpool_0", "pool_size": [2, 2], "padding": "valid", "trainable": true, "data_format": "channels_last"}, "inbound_nodes": [[["relu_1", 0, 0, {}]]], "class_name": "MaxPooling2D"}, {"name": "dropout_11", "config": {"rate": 0.25, "name": "dropout_11", "trainable": true}, "inbound_nodes": [[["maxpool_0", 0, 0, {}]]], "class_name": "Dropout"}, {"name": "flatten_5", "config": {"name": "flatten_5", "trainable": true}, "inbound_nodes": [[["dropout_11", 0, 0, {}]]], "class_name": "Flatten"}, {"name": "dense_9", "config": {"bias_regularizer": null, "activation": "relu", "kernel_initializer": {"config": {"seed": null, "distribution": "uniform", "scale": 1.0, "mode": "fan_avg"}, "class_name": "VarianceScaling"}, "units": 512, "use_bias": true, "bias_constraint": null, "name": "dense_9", "kernel_regularizer": null, "activity_regularizer": null, "trainable": true, "kernel_constraint": null, "bias_initializer": {"config": {}, "class_name": "Zeros"}}, "inbound_nodes": [[["flatten_5", 0, 0, {}]]], "class_name": "Dense"}, {"name": "dropout_12", "config": {"rate": 0.5, "name": "dropout_12", "trainable": true}, "inbound_nodes": [[["dense_9", 0, 0, {}]]], "class_name": "Dropout"}, {"name": "dense_10", "config": {"bias_regularizer": null, "activation": "softmax", "kernel_initializer": {"config": {"seed": null, "distribution": "uniform", "scale": 1.0, "mode": "fan_avg"}, "class_name": "VarianceScaling"}, "units": 10, "use_bias": true, "bias_constraint": null, "name": "dense_10", "kernel_regularizer": null, "activity_regularizer": null, "trainable": true, "kernel_constraint": null, "bias_initializer": {"config": {}, "class_name": "Zeros"}}, "inbound_nodes": [[["dropout_12", 0, 0, {}]]], "class_name": "Dense"}], "output_layers": [["dense_10", 0, 0]]}, "user_arch": ["conv", "relu", "conv", "relu", "maxpool", "dropout"]}}